layer {
  name: "data"
  type: "Data"
  top: "data"
  top: "label"
  include {
    phase: TRAIN
  }
  transform_param {
    scale: 0.0078431372549
    crop_size: 224
    mean_value: 127.5
    mean_value: 127.5
    mean_value: 127.5
  }
  data_param {
    source: "/media/data/data/ilsvrc12_train_lmdb"
    batch_size: 16
    backend: LMDB
  }
}
layer {
  name: "data"
  type: "Data"
  top: "data"
  top: "label"
  include {
    phase: TEST
  }
  transform_param {
    scale: 0.0078431372549
    crop_size: 224
    mean_value: 127.5
    mean_value: 127.5
    mean_value: 127.5
  }
  data_param {
    source: "examples/imagenet/ilsvrc12_val_lmdb"
    batch_size: 25
    backend: LMDB
  }
}
layer {
  name: "stem1"
  type: "Convolution"
  bottom: "data"
  top: "stem1"
  convolution_param {
    num_output: 32
    bias_term: false
    pad: 1
    kernel_size: 3
    stride: 2
    weight_filler {
      type: "xavier"
    }
    bias_filler {
      type: "constant"
    }
  }
}
layer {
  name: "stem1/bn"
  type: "BatchNorm"
  bottom: "stem1"
  top: "stem1"
  param {
    lr_mult: 0
    decay_mult: 0
  }
  param {
    lr_mult: 0
    decay_mult: 0
  }
  param {
    lr_mult: 0
    decay_mult: 0
  }
  batch_norm_param {
    moving_average_fraction: 0.999
    eps: 0.001
  }
}
layer {
  name: "stem1/scale"
  type: "Scale"
  bottom: "stem1"
  top: "stem1"
  param {
    lr_mult: 1
    decay_mult: 0
  }
  param {
    lr_mult: 2
    decay_mult: 0
  }
  scale_param {
    filler {
      value: 1
    }
    bias_term: true
    bias_filler {
      value: 0
    }
  }
}
layer {
  name: "stem1/relu"
  type: "ReLU"
  bottom: "stem1"
  top: "stem1"
}
layer {
  name: "stem2a"
  type: "Convolution"
  bottom: "stem1"
  top: "stem2a"
  convolution_param {
    num_output: 16
    bias_term: false
    pad: 0
    kernel_size: 1
    stride: 1
    weight_filler {
      type: "xavier"
    }
    bias_filler {
      type: "constant"
    }
  }
}
layer {
  name: "stem2a/bn"
  type: "BatchNorm"
  bottom: "stem2a"
  top: "stem2a"
  param {
    lr_mult: 0
    decay_mult: 0
  }
  param {
    lr_mult: 0
    decay_mult: 0
  }
  param {
    lr_mult: 0
    decay_mult: 0
  }
  batch_norm_param {
    moving_average_fraction: 0.999
    eps: 0.001
  }
}
layer {
  name: "stem2a/scale"
  type: "Scale"
  bottom: "stem2a"
  top: "stem2a"
  param {
    lr_mult: 1
    decay_mult: 0
  }
  param {
    lr_mult: 2
    decay_mult: 0
  }
  scale_param {
    filler {
      value: 1
    }
    bias_term: true
    bias_filler {
      value: 0
    }
  }
}
layer {
  name: "stem2a/relu"
  type: "ReLU"
  bottom: "stem2a"
  top: "stem2a"
}
layer {
  name: "stem2b"
  type: "Convolution"
  bottom: "stem2a"
  top: "stem2b"
  convolution_param {
    num_output: 32
    bias_term: false
    pad: 1
    kernel_size: 3
    stride: 2
    weight_filler {
      type: "xavier"
    }
    bias_filler {
      type: "constant"
    }
  }
}
layer {
  name: "stem2b/bn"
  type: "BatchNorm"
  bottom: "stem2b"
  top: "stem2b"
  param {
    lr_mult: 0
    decay_mult: 0
  }
  param {
    lr_mult: 0
    decay_mult: 0
  }
  param {
    lr_mult: 0
    decay_mult: 0
  }
  batch_norm_param {
    moving_average_fraction: 0.999
    eps: 0.001
  }
}
layer {
  name: "stem2b/scale"
  type: "Scale"
  bottom: "stem2b"
  top: "stem2b"
  param {
    lr_mult: 1
    decay_mult: 0
  }
  param {
    lr_mult: 2
    decay_mult: 0
  }
  scale_param {
    filler {
      value: 1
    }
    bias_term: true
    bias_filler {
      value: 0
    }
  }
}
layer {
  name: "stem2b/relu"
  type: "ReLU"
  bottom: "stem2b"
  top: "stem2b"
}
layer {
  name: "stem/pool"
  type: "Pooling"
  bottom: "stem1"
  top: "stem/pool"
  pooling_param {
    pool: MAX
    kernel_size: 2
    stride: 2
  }
}
layer {
  name: "stem/concat"
  type: "Concat"
  bottom: "stem/pool"
  bottom: "stem2b"
  top: "stem/concat"
  concat_param {
    axis: 1
  }
}
layer {
  name: "stem3"
  type: "Convolution"
  bottom: "stem/concat"
  top: "stem3"
  convolution_param {
    num_output: 32
    bias_term: false
    pad: 0
    kernel_size: 1
    stride: 1
    weight_filler {
      type: "xavier"
    }
    bias_filler {
      type: "constant"
    }
  }
}
layer {
  name: "stem3/bn"
  type: "BatchNorm"
  bottom: "stem3"
  top: "stem3"
  param {
    lr_mult: 0
    decay_mult: 0
  }
  param {
    lr_mult: 0
    decay_mult: 0
  }
  param {
    lr_mult: 0
    decay_mult: 0
  }
  batch_norm_param {
    moving_average_fraction: 0.999
    eps: 0.001
  }
}
layer {
  name: "stem3/scale"
  type: "Scale"
  bottom: "stem3"
  top: "stem3"
  param {
    lr_mult: 1
    decay_mult: 0
  }
  param {
    lr_mult: 2
    decay_mult: 0
  }
  scale_param {
    filler {
      value: 1
    }
    bias_term: true
    bias_filler {
      value: 0
    }
  }
}
layer {
  name: "stem3/relu"
  type: "ReLU"
  bottom: "stem3"
  top: "stem3"
}
layer {
  name: "stage1_1/branch1"
  type: "Convolution"
  bottom: "stem3"
  top: "stage1_1/branch1"
  convolution_param {
    num_output: 16
    bias_term: false
    pad: 0
    kernel_size: 1
    stride: 1
    weight_filler {
      type: "xavier"
    }
    bias_filler {
      type: "constant"
    }
  }
}
layer {
  name: "stage1_1/branch1/bn"
  type: "BatchNorm"
  bottom: "stage1_1/branch1"
  top: "stage1_1/branch1"
  param {
    lr_mult: 0
    decay_mult: 0
  }
  param {
    lr_mult: 0
    decay_mult: 0
  }
  param {
    lr_mult: 0
    decay_mult: 0
  }
  batch_norm_param {
    moving_average_fraction: 0.999
    eps: 0.001
  }
}
layer {
  name: "stage1_1/branch1/scale"
  type: "Scale"
  bottom: "stage1_1/branch1"
  top: "stage1_1/branch1"
  param {
    lr_mult: 1
    decay_mult: 0
  }
  param {
    lr_mult: 2
    decay_mult: 0
  }
  scale_param {
    filler {
      value: 1
    }
    bias_term: true
    bias_filler {
      value: 0
    }
  }
}
layer {
  name: "stage1_1/branch1/relu"
  type: "ReLU"
  bottom: "stage1_1/branch1"
  top: "stage1_1/branch1"
}
layer {
  name: "stage1_1/branch2a"
  type: "Convolution"
  bottom: "stem3"
  top: "stage1_1/branch2a"
  convolution_param {
    num_output: 16
    bias_term: false
    pad: 0
    kernel_size: 1
    stride: 1
    weight_filler {
      type: "xavier"
    }
    bias_filler {
      type: "constant"
    }
  }
}
layer {
  name: "stage1_1/branch2a/bn"
  type: "BatchNorm"
  bottom: "stage1_1/branch2a"
  top: "stage1_1/branch2a"
  param {
    lr_mult: 0
    decay_mult: 0
  }
  param {
    lr_mult: 0
    decay_mult: 0
  }
  param {
    lr_mult: 0
    decay_mult: 0
  }
  batch_norm_param {
    moving_average_fraction: 0.999
    eps: 0.001
  }
}
layer {
  name: "stage1_1/branch2a/scale"
  type: "Scale"
  bottom: "stage1_1/branch2a"
  top: "stage1_1/branch2a"
  param {
    lr_mult: 1
    decay_mult: 0
  }
  param {
    lr_mult: 2
    decay_mult: 0
  }
  scale_param {
    filler {
      value: 1
    }
    bias_term: true
    bias_filler {
      value: 0
    }
  }
}
layer {
  name: "stage1_1/branch2a/relu"
  type: "ReLU"
  bottom: "stage1_1/branch2a"
  top: "stage1_1/branch2a"
}
layer {
  name: "stage1_1/branch2b"
  type: "Convolution"
  bottom: "stage1_1/branch2a"
  top: "stage1_1/branch2b"
  convolution_param {
    num_output: 16
    bias_term: false
    pad: 1
    kernel_size: 3
    stride: 1
    weight_filler {
      type: "xavier"
    }
    bias_filler {
      type: "constant"
    }
  }
}
layer {
  name: "stage1_1/branch2b/bn"
  type: "BatchNorm"
  bottom: "stage1_1/branch2b"
  top: "stage1_1/branch2b"
  param {
    lr_mult: 0
    decay_mult: 0
  }
  param {
    lr_mult: 0
    decay_mult: 0
  }
  param {
    lr_mult: 0
    decay_mult: 0
  }
  batch_norm_param {
    moving_average_fraction: 0.999
    eps: 0.001
  }
}
layer {
  name: "stage1_1/branch2b/scale"
  type: "Scale"
  bottom: "stage1_1/branch2b"
  top: "stage1_1/branch2b"
  param {
    lr_mult: 1
    decay_mult: 0
  }
  param {
    lr_mult: 2
    decay_mult: 0
  }
  scale_param {
    filler {
      value: 1
    }
    bias_term: true
    bias_filler {
      value: 0
    }
  }
}
layer {
  name: "stage1_1/branch2b/relu"
  type: "ReLU"
  bottom: "stage1_1/branch2b"
  top: "stage1_1/branch2b"
}
layer {
  name: "stage1_1/branch3a"
  type: "Convolution"
  bottom: "stem3"
  top: "stage1_1/branch3a"
  convolution_param {
    num_output: 16
    bias_term: false
    pad: 0
    kernel_size: 1
    stride: 1
    weight_filler {
      type: "xavier"
    }
    bias_filler {
      type: "constant"
    }
  }
}
layer {
  name: "stage1_1/branch3a/bn"
  type: "BatchNorm"
  bottom: "stage1_1/branch3a"
  top: "stage1_1/branch3a"
  param {
    lr_mult: 0
    decay_mult: 0
  }
  param {
    lr_mult: 0
    decay_mult: 0
  }
  param {
    lr_mult: 0
    decay_mult: 0
  }
  batch_norm_param {
    moving_average_fraction: 0.999
    eps: 0.001
  }
}
layer {
  name: "stage1_1/branch3a/scale"
  type: "Scale"
  bottom: "stage1_1/branch3a"
  top: "stage1_1/branch3a"
  param {
    lr_mult: 1
    decay_mult: 0
  }
  param {
    lr_mult: 2
    decay_mult: 0
  }
  scale_param {
    filler {
      value: 1
    }
    bias_term: true
    bias_filler {
      value: 0
    }
  }
}
layer {
  name: "stage1_1/branch3a/relu"
  type: "ReLU"
  bottom: "stage1_1/branch3a"
  top: "stage1_1/branch3a"
}
layer {
  name: "stage1_1/branch3b"
  type: "Convolution"
  bottom: "stage1_1/branch3a"
  top: "stage1_1/branch3b"
  convolution_param {
    num_output: 16
    bias_term: false
    pad: 1
    kernel_size: 3
    stride: 1
    weight_filler {
      type: "xavier"
    }
    bias_filler {
      type: "constant"
    }
  }
}
layer {
  name: "stage1_1/branch3b/bn"
  type: "BatchNorm"
  bottom: "stage1_1/branch3b"
  top: "stage1_1/branch3b"
  param {
    lr_mult: 0
    decay_mult: 0
  }
  param {
    lr_mult: 0
    decay_mult: 0
  }
  param {
    lr_mult: 0
    decay_mult: 0
  }
  batch_norm_param {
    moving_average_fraction: 0.999
    eps: 0.001
  }
}
layer {
  name: "stage1_1/branch3b/scale"
  type: "Scale"
  bottom: "stage1_1/branch3b"
  top: "stage1_1/branch3b"
  param {
    lr_mult: 1
    decay_mult: 0
  }
  param {
    lr_mult: 2
    decay_mult: 0
  }
  scale_param {
    filler {
      value: 1
    }
    bias_term: true
    bias_filler {
      value: 0
    }
  }
}
layer {
  name: "stage1_1/branch3b/relu"
  type: "ReLU"
  bottom: "stage1_1/branch3b"
  top: "stage1_1/branch3b"
}
layer {
  name: "stage1_1/branch3c"
  type: "Convolution"
  bottom: "stage1_1/branch3b"
  top: "stage1_1/branch3c"
  convolution_param {
    num_output: 16
    bias_term: false
    pad: 1
    kernel_size: 3
    stride: 1
    weight_filler {
      type: "xavier"
    }
    bias_filler {
      type: "constant"
    }
  }
}
layer {
  name: "stage1_1/branch3c/bn"
  type: "BatchNorm"
  bottom: "stage1_1/branch3c"
  top: "stage1_1/branch3c"
  param {
    lr_mult: 0
    decay_mult: 0
  }
  param {
    lr_mult: 0
    decay_mult: 0
  }
  param {
    lr_mult: 0
    decay_mult: 0
  }
  batch_norm_param {
    moving_average_fraction: 0.999
    eps: 0.001
  }
}
layer {
  name: "stage1_1/branch3c/scale"
  type: "Scale"
  bottom: "stage1_1/branch3c"
  top: "stage1_1/branch3c"
  param {
    lr_mult: 1
    decay_mult: 0
  }
  param {
    lr_mult: 2
    decay_mult: 0
  }
  scale_param {
    filler {
      value: 1
    }
    bias_term: true
    bias_filler {
      value: 0
    }
  }
}
layer {
  name: "stage1_1/branch3c/relu"
  type: "ReLU"
  bottom: "stage1_1/branch3c"
  top: "stage1_1/branch3c"
}
layer {
  name: "stage1_1/eltwise"
  type: "Eltwise"
  bottom: "stage1_1/branch1"
  bottom: "stage1_1/branch2b"
  bottom: "stage1_1/branch3c"
  top: "stage1_1/eltwise"
  eltwise_param {
    operation: MAX
  }
}
layer {
  name: "stage1_1/concat"
  type: "Concat"
  bottom: "stem3"
  bottom: "stage1_1/eltwise"
  top: "stage1_1/concat"
  concat_param {
    axis: 1
  }
}
layer {
  name: "stage1_2/branch1"
  type: "Convolution"
  bottom: "stage1_1/concat"
  top: "stage1_2/branch1"
  convolution_param {
    num_output: 16
    bias_term: false
    pad: 0
    kernel_size: 1
    stride: 1
    weight_filler {
      type: "xavier"
    }
    bias_filler {
      type: "constant"
    }
  }
}
layer {
  name: "stage1_2/branch1/bn"
  type: "BatchNorm"
  bottom: "stage1_2/branch1"
  top: "stage1_2/branch1"
  param {
    lr_mult: 0
    decay_mult: 0
  }
  param {
    lr_mult: 0
    decay_mult: 0
  }
  param {
    lr_mult: 0
    decay_mult: 0
  }
  batch_norm_param {
    moving_average_fraction: 0.999
    eps: 0.001
  }
}
layer {
  name: "stage1_2/branch1/scale"
  type: "Scale"
  bottom: "stage1_2/branch1"
  top: "stage1_2/branch1"
  param {
    lr_mult: 1
    decay_mult: 0
  }
  param {
    lr_mult: 2
    decay_mult: 0
  }
  scale_param {
    filler {
      value: 1
    }
    bias_term: true
    bias_filler {
      value: 0
    }
  }
}
layer {
  name: "stage1_2/branch1/relu"
  type: "ReLU"
  bottom: "stage1_2/branch1"
  top: "stage1_2/branch1"
}
layer {
  name: "stage1_2/branch2a"
  type: "Convolution"
  bottom: "stage1_1/concat"
  top: "stage1_2/branch2a"
  convolution_param {
    num_output: 16
    bias_term: false
    pad: 0
    kernel_size: 1
    stride: 1
    weight_filler {
      type: "xavier"
    }
    bias_filler {
      type: "constant"
    }
  }
}
layer {
  name: "stage1_2/branch2a/bn"
  type: "BatchNorm"
  bottom: "stage1_2/branch2a"
  top: "stage1_2/branch2a"
  param {
    lr_mult: 0
    decay_mult: 0
  }
  param {
    lr_mult: 0
    decay_mult: 0
  }
  param {
    lr_mult: 0
    decay_mult: 0
  }
  batch_norm_param {
    moving_average_fraction: 0.999
    eps: 0.001
  }
}
layer {
  name: "stage1_2/branch2a/scale"
  type: "Scale"
  bottom: "stage1_2/branch2a"
  top: "stage1_2/branch2a"
  param {
    lr_mult: 1
    decay_mult: 0
  }
  param {
    lr_mult: 2
    decay_mult: 0
  }
  scale_param {
    filler {
      value: 1
    }
    bias_term: true
    bias_filler {
      value: 0
    }
  }
}
layer {
  name: "stage1_2/branch2a/relu"
  type: "ReLU"
  bottom: "stage1_2/branch2a"
  top: "stage1_2/branch2a"
}
layer {
  name: "stage1_2/branch2b"
  type: "Convolution"
  bottom: "stage1_2/branch2a"
  top: "stage1_2/branch2b"
  convolution_param {
    num_output: 16
    bias_term: false
    pad: 1
    kernel_size: 3
    stride: 1
    weight_filler {
      type: "xavier"
    }
    bias_filler {
      type: "constant"
    }
  }
}
layer {
  name: "stage1_2/branch2b/bn"
  type: "BatchNorm"
  bottom: "stage1_2/branch2b"
  top: "stage1_2/branch2b"
  param {
    lr_mult: 0
    decay_mult: 0
  }
  param {
    lr_mult: 0
    decay_mult: 0
  }
  param {
    lr_mult: 0
    decay_mult: 0
  }
  batch_norm_param {
    moving_average_fraction: 0.999
    eps: 0.001
  }
}
layer {
  name: "stage1_2/branch2b/scale"
  type: "Scale"
  bottom: "stage1_2/branch2b"
  top: "stage1_2/branch2b"
  param {
    lr_mult: 1
    decay_mult: 0
  }
  param {
    lr_mult: 2
    decay_mult: 0
  }
  scale_param {
    filler {
      value: 1
    }
    bias_term: true
    bias_filler {
      value: 0
    }
  }
}
layer {
  name: "stage1_2/branch2b/relu"
  type: "ReLU"
  bottom: "stage1_2/branch2b"
  top: "stage1_2/branch2b"
}
layer {
  name: "stage1_2/branch3a"
  type: "Convolution"
  bottom: "stage1_1/concat"
  top: "stage1_2/branch3a"
  convolution_param {
    num_output: 16
    bias_term: false
    pad: 0
    kernel_size: 1
    stride: 1
    weight_filler {
      type: "xavier"
    }
    bias_filler {
      type: "constant"
    }
  }
}
layer {
  name: "stage1_2/branch3a/bn"
  type: "BatchNorm"
  bottom: "stage1_2/branch3a"
  top: "stage1_2/branch3a"
  param {
    lr_mult: 0
    decay_mult: 0
  }
  param {
    lr_mult: 0
    decay_mult: 0
  }
  param {
    lr_mult: 0
    decay_mult: 0
  }
  batch_norm_param {
    moving_average_fraction: 0.999
    eps: 0.001
  }
}
layer {
  name: "stage1_2/branch3a/scale"
  type: "Scale"
  bottom: "stage1_2/branch3a"
  top: "stage1_2/branch3a"
  param {
    lr_mult: 1
    decay_mult: 0
  }
  param {
    lr_mult: 2
    decay_mult: 0
  }
  scale_param {
    filler {
      value: 1
    }
    bias_term: true
    bias_filler {
      value: 0
    }
  }
}
layer {
  name: "stage1_2/branch3a/relu"
  type: "ReLU"
  bottom: "stage1_2/branch3a"
  top: "stage1_2/branch3a"
}
layer {
  name: "stage1_2/branch3b"
  type: "Convolution"
  bottom: "stage1_2/branch3a"
  top: "stage1_2/branch3b"
  convolution_param {
    num_output: 16
    bias_term: false
    pad: 1
    kernel_size: 3
    stride: 1
    weight_filler {
      type: "xavier"
    }
    bias_filler {
      type: "constant"
    }
  }
}
layer {
  name: "stage1_2/branch3b/bn"
  type: "BatchNorm"
  bottom: "stage1_2/branch3b"
  top: "stage1_2/branch3b"
  param {
    lr_mult: 0
    decay_mult: 0
  }
  param {
    lr_mult: 0
    decay_mult: 0
  }
  param {
    lr_mult: 0
    decay_mult: 0
  }
  batch_norm_param {
    moving_average_fraction: 0.999
    eps: 0.001
  }
}
layer {
  name: "stage1_2/branch3b/scale"
  type: "Scale"
  bottom: "stage1_2/branch3b"
  top: "stage1_2/branch3b"
  param {
    lr_mult: 1
    decay_mult: 0
  }
  param {
    lr_mult: 2
    decay_mult: 0
  }
  scale_param {
    filler {
      value: 1
    }
    bias_term: true
    bias_filler {
      value: 0
    }
  }
}
layer {
  name: "stage1_2/branch3b/relu"
  type: "ReLU"
  bottom: "stage1_2/branch3b"
  top: "stage1_2/branch3b"
}
layer {
  name: "stage1_2/branch3c"
  type: "Convolution"
  bottom: "stage1_2/branch3b"
  top: "stage1_2/branch3c"
  convolution_param {
    num_output: 16
    bias_term: false
    pad: 1
    kernel_size: 3
    stride: 1
    weight_filler {
      type: "xavier"
    }
    bias_filler {
      type: "constant"
    }
  }
}
layer {
  name: "stage1_2/branch3c/bn"
  type: "BatchNorm"
  bottom: "stage1_2/branch3c"
  top: "stage1_2/branch3c"
  param {
    lr_mult: 0
    decay_mult: 0
  }
  param {
    lr_mult: 0
    decay_mult: 0
  }
  param {
    lr_mult: 0
    decay_mult: 0
  }
  batch_norm_param {
    moving_average_fraction: 0.999
    eps: 0.001
  }
}
layer {
  name: "stage1_2/branch3c/scale"
  type: "Scale"
  bottom: "stage1_2/branch3c"
  top: "stage1_2/branch3c"
  param {
    lr_mult: 1
    decay_mult: 0
  }
  param {
    lr_mult: 2
    decay_mult: 0
  }
  scale_param {
    filler {
      value: 1
    }
    bias_term: true
    bias_filler {
      value: 0
    }
  }
}
layer {
  name: "stage1_2/branch3c/relu"
  type: "ReLU"
  bottom: "stage1_2/branch3c"
  top: "stage1_2/branch3c"
}
layer {
  name: "stage1_2/eltwise"
  type: "Eltwise"
  bottom: "stage1_2/branch1"
  bottom: "stage1_2/branch2b"
  bottom: "stage1_2/branch3c"
  top: "stage1_2/eltwise"
  eltwise_param {
    operation: MAX
  }
}
layer {
  name: "stage1_2/concat"
  type: "Concat"
  bottom: "stage1_1/concat"
  bottom: "stage1_2/eltwise"
  top: "stage1_2/concat"
  concat_param {
    axis: 1
  }
}
layer {
  name: "stage1_3/branch1"
  type: "Convolution"
  bottom: "stage1_2/concat"
  top: "stage1_3/branch1"
  convolution_param {
    num_output: 16
    bias_term: false
    pad: 0
    kernel_size: 1
    stride: 1
    weight_filler {
      type: "xavier"
    }
    bias_filler {
      type: "constant"
    }
  }
}
layer {
  name: "stage1_3/branch1/bn"
  type: "BatchNorm"
  bottom: "stage1_3/branch1"
  top: "stage1_3/branch1"
  param {
    lr_mult: 0
    decay_mult: 0
  }
  param {
    lr_mult: 0
    decay_mult: 0
  }
  param {
    lr_mult: 0
    decay_mult: 0
  }
  batch_norm_param {
    moving_average_fraction: 0.999
    eps: 0.001
  }
}
layer {
  name: "stage1_3/branch1/scale"
  type: "Scale"
  bottom: "stage1_3/branch1"
  top: "stage1_3/branch1"
  param {
    lr_mult: 1
    decay_mult: 0
  }
  param {
    lr_mult: 2
    decay_mult: 0
  }
  scale_param {
    filler {
      value: 1
    }
    bias_term: true
    bias_filler {
      value: 0
    }
  }
}
layer {
  name: "stage1_3/branch1/relu"
  type: "ReLU"
  bottom: "stage1_3/branch1"
  top: "stage1_3/branch1"
}
layer {
  name: "stage1_3/branch2a"
  type: "Convolution"
  bottom: "stage1_2/concat"
  top: "stage1_3/branch2a"
  convolution_param {
    num_output: 16
    bias_term: false
    pad: 0
    kernel_size: 1
    stride: 1
    weight_filler {
      type: "xavier"
    }
    bias_filler {
      type: "constant"
    }
  }
}
layer {
  name: "stage1_3/branch2a/bn"
  type: "BatchNorm"
  bottom: "stage1_3/branch2a"
  top: "stage1_3/branch2a"
  param {
    lr_mult: 0
    decay_mult: 0
  }
  param {
    lr_mult: 0
    decay_mult: 0
  }
  param {
    lr_mult: 0
    decay_mult: 0
  }
  batch_norm_param {
    moving_average_fraction: 0.999
    eps: 0.001
  }
}
layer {
  name: "stage1_3/branch2a/scale"
  type: "Scale"
  bottom: "stage1_3/branch2a"
  top: "stage1_3/branch2a"
  param {
    lr_mult: 1
    decay_mult: 0
  }
  param {
    lr_mult: 2
    decay_mult: 0
  }
  scale_param {
    filler {
      value: 1
    }
    bias_term: true
    bias_filler {
      value: 0
    }
  }
}
layer {
  name: "stage1_3/branch2a/relu"
  type: "ReLU"
  bottom: "stage1_3/branch2a"
  top: "stage1_3/branch2a"
}
layer {
  name: "stage1_3/branch2b"
  type: "Convolution"
  bottom: "stage1_3/branch2a"
  top: "stage1_3/branch2b"
  convolution_param {
    num_output: 16
    bias_term: false
    pad: 1
    kernel_size: 3
    stride: 1
    weight_filler {
      type: "xavier"
    }
    bias_filler {
      type: "constant"
    }
  }
}
layer {
  name: "stage1_3/branch2b/bn"
  type: "BatchNorm"
  bottom: "stage1_3/branch2b"
  top: "stage1_3/branch2b"
  param {
    lr_mult: 0
    decay_mult: 0
  }
  param {
    lr_mult: 0
    decay_mult: 0
  }
  param {
    lr_mult: 0
    decay_mult: 0
  }
  batch_norm_param {
    moving_average_fraction: 0.999
    eps: 0.001
  }
}
layer {
  name: "stage1_3/branch2b/scale"
  type: "Scale"
  bottom: "stage1_3/branch2b"
  top: "stage1_3/branch2b"
  param {
    lr_mult: 1
    decay_mult: 0
  }
  param {
    lr_mult: 2
    decay_mult: 0
  }
  scale_param {
    filler {
      value: 1
    }
    bias_term: true
    bias_filler {
      value: 0
    }
  }
}
layer {
  name: "stage1_3/branch2b/relu"
  type: "ReLU"
  bottom: "stage1_3/branch2b"
  top: "stage1_3/branch2b"
}
layer {
  name: "stage1_3/branch3a"
  type: "Convolution"
  bottom: "stage1_2/concat"
  top: "stage1_3/branch3a"
  convolution_param {
    num_output: 16
    bias_term: false
    pad: 0
    kernel_size: 1
    stride: 1
    weight_filler {
      type: "xavier"
    }
    bias_filler {
      type: "constant"
    }
  }
}
layer {
  name: "stage1_3/branch3a/bn"
  type: "BatchNorm"
  bottom: "stage1_3/branch3a"
  top: "stage1_3/branch3a"
  param {
    lr_mult: 0
    decay_mult: 0
  }
  param {
    lr_mult: 0
    decay_mult: 0
  }
  param {
    lr_mult: 0
    decay_mult: 0
  }
  batch_norm_param {
    moving_average_fraction: 0.999
    eps: 0.001
  }
}
layer {
  name: "stage1_3/branch3a/scale"
  type: "Scale"
  bottom: "stage1_3/branch3a"
  top: "stage1_3/branch3a"
  param {
    lr_mult: 1
    decay_mult: 0
  }
  param {
    lr_mult: 2
    decay_mult: 0
  }
  scale_param {
    filler {
      value: 1
    }
    bias_term: true
    bias_filler {
      value: 0
    }
  }
}
layer {
  name: "stage1_3/branch3a/relu"
  type: "ReLU"
  bottom: "stage1_3/branch3a"
  top: "stage1_3/branch3a"
}
layer {
  name: "stage1_3/branch3b"
  type: "Convolution"
  bottom: "stage1_3/branch3a"
  top: "stage1_3/branch3b"
  convolution_param {
    num_output: 16
    bias_term: false
    pad: 1
    kernel_size: 3
    stride: 1
    weight_filler {
      type: "xavier"
    }
    bias_filler {
      type: "constant"
    }
  }
}
layer {
  name: "stage1_3/branch3b/bn"
  type: "BatchNorm"
  bottom: "stage1_3/branch3b"
  top: "stage1_3/branch3b"
  param {
    lr_mult: 0
    decay_mult: 0
  }
  param {
    lr_mult: 0
    decay_mult: 0
  }
  param {
    lr_mult: 0
    decay_mult: 0
  }
  batch_norm_param {
    moving_average_fraction: 0.999
    eps: 0.001
  }
}
layer {
  name: "stage1_3/branch3b/scale"
  type: "Scale"
  bottom: "stage1_3/branch3b"
  top: "stage1_3/branch3b"
  param {
    lr_mult: 1
    decay_mult: 0
  }
  param {
    lr_mult: 2
    decay_mult: 0
  }
  scale_param {
    filler {
      value: 1
    }
    bias_term: true
    bias_filler {
      value: 0
    }
  }
}
layer {
  name: "stage1_3/branch3b/relu"
  type: "ReLU"
  bottom: "stage1_3/branch3b"
  top: "stage1_3/branch3b"
}
layer {
  name: "stage1_3/branch3c"
  type: "Convolution"
  bottom: "stage1_3/branch3b"
  top: "stage1_3/branch3c"
  convolution_param {
    num_output: 16
    bias_term: false
    pad: 1
    kernel_size: 3
    stride: 1
    weight_filler {
      type: "xavier"
    }
    bias_filler {
      type: "constant"
    }
  }
}
layer {
  name: "stage1_3/branch3c/bn"
  type: "BatchNorm"
  bottom: "stage1_3/branch3c"
  top: "stage1_3/branch3c"
  param {
    lr_mult: 0
    decay_mult: 0
  }
  param {
    lr_mult: 0
    decay_mult: 0
  }
  param {
    lr_mult: 0
    decay_mult: 0
  }
  batch_norm_param {
    moving_average_fraction: 0.999
    eps: 0.001
  }
}
layer {
  name: "stage1_3/branch3c/scale"
  type: "Scale"
  bottom: "stage1_3/branch3c"
  top: "stage1_3/branch3c"
  param {
    lr_mult: 1
    decay_mult: 0
  }
  param {
    lr_mult: 2
    decay_mult: 0
  }
  scale_param {
    filler {
      value: 1
    }
    bias_term: true
    bias_filler {
      value: 0
    }
  }
}
layer {
  name: "stage1_3/branch3c/relu"
  type: "ReLU"
  bottom: "stage1_3/branch3c"
  top: "stage1_3/branch3c"
}
layer {
  name: "stage1_3/eltwise"
  type: "Eltwise"
  bottom: "stage1_3/branch1"
  bottom: "stage1_3/branch2b"
  bottom: "stage1_3/branch3c"
  top: "stage1_3/eltwise"
  eltwise_param {
    operation: MAX
  }
}
layer {
  name: "stage1_3/concat"
  type: "Concat"
  bottom: "stage1_2/concat"
  bottom: "stage1_3/eltwise"
  top: "stage1_3/concat"
  concat_param {
    axis: 1
  }
}
layer {
  name: "stage1_tb"
  type: "Convolution"
  bottom: "stage1_3/concat"
  top: "stage1_tb"
  convolution_param {
    num_output: 80
    bias_term: false
    pad: 0
    kernel_size: 1
    stride: 1
    weight_filler {
      type: "xavier"
    }
    bias_filler {
      type: "constant"
    }
  }
}
layer {
  name: "stage1_tb/bn"
  type: "BatchNorm"
  bottom: "stage1_tb"
  top: "stage1_tb"
  param {
    lr_mult: 0
    decay_mult: 0
  }
  param {
    lr_mult: 0
    decay_mult: 0
  }
  param {
    lr_mult: 0
    decay_mult: 0
  }
  batch_norm_param {
    moving_average_fraction: 0.999
    eps: 0.001
  }
}
layer {
  name: "stage1_tb/scale"
  type: "Scale"
  bottom: "stage1_tb"
  top: "stage1_tb"
  param {
    lr_mult: 1
    decay_mult: 0
  }
  param {
    lr_mult: 2
    decay_mult: 0
  }
  scale_param {
    filler {
      value: 1
    }
    bias_term: true
    bias_filler {
      value: 0
    }
  }
}
layer {
  name: "stage1_tb/relu"
  type: "ReLU"
  bottom: "stage1_tb"
  top: "stage1_tb"
}
layer {
  name: "stage1_tb/pool"
  type: "Pooling"
  bottom: "stage1_tb"
  top: "stage1_tb/pool"
  pooling_param {
    pool: MAX
    kernel_size: 2
    stride: 2
  }
}
layer {
  name: "stage2_1/branch1"
  type: "Convolution"
  bottom: "stage1_tb/pool"
  top: "stage2_1/branch1"
  convolution_param {
    num_output: 16
    bias_term: false
    pad: 0
    kernel_size: 1
    stride: 1
    weight_filler {
      type: "xavier"
    }
    bias_filler {
      type: "constant"
    }
  }
}
layer {
  name: "stage2_1/branch1/bn"
  type: "BatchNorm"
  bottom: "stage2_1/branch1"
  top: "stage2_1/branch1"
  param {
    lr_mult: 0
    decay_mult: 0
  }
  param {
    lr_mult: 0
    decay_mult: 0
  }
  param {
    lr_mult: 0
    decay_mult: 0
  }
  batch_norm_param {
    moving_average_fraction: 0.999
    eps: 0.001
  }
}
layer {
  name: "stage2_1/branch1/scale"
  type: "Scale"
  bottom: "stage2_1/branch1"
  top: "stage2_1/branch1"
  param {
    lr_mult: 1
    decay_mult: 0
  }
  param {
    lr_mult: 2
    decay_mult: 0
  }
  scale_param {
    filler {
      value: 1
    }
    bias_term: true
    bias_filler {
      value: 0
    }
  }
}
layer {
  name: "stage2_1/branch1/relu"
  type: "ReLU"
  bottom: "stage2_1/branch1"
  top: "stage2_1/branch1"
}
layer {
  name: "stage2_1/branch2a"
  type: "Convolution"
  bottom: "stage1_tb/pool"
  top: "stage2_1/branch2a"
  convolution_param {
    num_output: 32
    bias_term: false
    pad: 0
    kernel_size: 1
    stride: 1
    weight_filler {
      type: "xavier"
    }
    bias_filler {
      type: "constant"
    }
  }
}
layer {
  name: "stage2_1/branch2a/bn"
  type: "BatchNorm"
  bottom: "stage2_1/branch2a"
  top: "stage2_1/branch2a"
  param {
    lr_mult: 0
    decay_mult: 0
  }
  param {
    lr_mult: 0
    decay_mult: 0
  }
  param {
    lr_mult: 0
    decay_mult: 0
  }
  batch_norm_param {
    moving_average_fraction: 0.999
    eps: 0.001
  }
}
layer {
  name: "stage2_1/branch2a/scale"
  type: "Scale"
  bottom: "stage2_1/branch2a"
  top: "stage2_1/branch2a"
  param {
    lr_mult: 1
    decay_mult: 0
  }
  param {
    lr_mult: 2
    decay_mult: 0
  }
  scale_param {
    filler {
      value: 1
    }
    bias_term: true
    bias_filler {
      value: 0
    }
  }
}
layer {
  name: "stage2_1/branch2a/relu"
  type: "ReLU"
  bottom: "stage2_1/branch2a"
  top: "stage2_1/branch2a"
}
layer {
  name: "stage2_1/branch2b"
  type: "Convolution"
  bottom: "stage2_1/branch2a"
  top: "stage2_1/branch2b"
  convolution_param {
    num_output: 16
    bias_term: false
    pad: 1
    kernel_size: 3
    stride: 1
    weight_filler {
      type: "xavier"
    }
    bias_filler {
      type: "constant"
    }
  }
}
layer {
  name: "stage2_1/branch2b/bn"
  type: "BatchNorm"
  bottom: "stage2_1/branch2b"
  top: "stage2_1/branch2b"
  param {
    lr_mult: 0
    decay_mult: 0
  }
  param {
    lr_mult: 0
    decay_mult: 0
  }
  param {
    lr_mult: 0
    decay_mult: 0
  }
  batch_norm_param {
    moving_average_fraction: 0.999
    eps: 0.001
  }
}
layer {
  name: "stage2_1/branch2b/scale"
  type: "Scale"
  bottom: "stage2_1/branch2b"
  top: "stage2_1/branch2b"
  param {
    lr_mult: 1
    decay_mult: 0
  }
  param {
    lr_mult: 2
    decay_mult: 0
  }
  scale_param {
    filler {
      value: 1
    }
    bias_term: true
    bias_filler {
      value: 0
    }
  }
}
layer {
  name: "stage2_1/branch2b/relu"
  type: "ReLU"
  bottom: "stage2_1/branch2b"
  top: "stage2_1/branch2b"
}
layer {
  name: "stage2_1/branch3a"
  type: "Convolution"
  bottom: "stage1_tb/pool"
  top: "stage2_1/branch3a"
  convolution_param {
    num_output: 32
    bias_term: false
    pad: 0
    kernel_size: 1
    stride: 1
    weight_filler {
      type: "xavier"
    }
    bias_filler {
      type: "constant"
    }
  }
}
layer {
  name: "stage2_1/branch3a/bn"
  type: "BatchNorm"
  bottom: "stage2_1/branch3a"
  top: "stage2_1/branch3a"
  param {
    lr_mult: 0
    decay_mult: 0
  }
  param {
    lr_mult: 0
    decay_mult: 0
  }
  param {
    lr_mult: 0
    decay_mult: 0
  }
  batch_norm_param {
    moving_average_fraction: 0.999
    eps: 0.001
  }
}
layer {
  name: "stage2_1/branch3a/scale"
  type: "Scale"
  bottom: "stage2_1/branch3a"
  top: "stage2_1/branch3a"
  param {
    lr_mult: 1
    decay_mult: 0
  }
  param {
    lr_mult: 2
    decay_mult: 0
  }
  scale_param {
    filler {
      value: 1
    }
    bias_term: true
    bias_filler {
      value: 0
    }
  }
}
layer {
  name: "stage2_1/branch3a/relu"
  type: "ReLU"
  bottom: "stage2_1/branch3a"
  top: "stage2_1/branch3a"
}
layer {
  name: "stage2_1/branch3b"
  type: "Convolution"
  bottom: "stage2_1/branch3a"
  top: "stage2_1/branch3b"
  convolution_param {
    num_output: 32
    bias_term: false
    pad: 1
    kernel_size: 3
    stride: 1
    weight_filler {
      type: "xavier"
    }
    bias_filler {
      type: "constant"
    }
  }
}
layer {
  name: "stage2_1/branch3b/bn"
  type: "BatchNorm"
  bottom: "stage2_1/branch3b"
  top: "stage2_1/branch3b"
  param {
    lr_mult: 0
    decay_mult: 0
  }
  param {
    lr_mult: 0
    decay_mult: 0
  }
  param {
    lr_mult: 0
    decay_mult: 0
  }
  batch_norm_param {
    moving_average_fraction: 0.999
    eps: 0.001
  }
}
layer {
  name: "stage2_1/branch3b/scale"
  type: "Scale"
  bottom: "stage2_1/branch3b"
  top: "stage2_1/branch3b"
  param {
    lr_mult: 1
    decay_mult: 0
  }
  param {
    lr_mult: 2
    decay_mult: 0
  }
  scale_param {
    filler {
      value: 1
    }
    bias_term: true
    bias_filler {
      value: 0
    }
  }
}
layer {
  name: "stage2_1/branch3b/relu"
  type: "ReLU"
  bottom: "stage2_1/branch3b"
  top: "stage2_1/branch3b"
}
layer {
  name: "stage2_1/branch3c"
  type: "Convolution"
  bottom: "stage2_1/branch3b"
  top: "stage2_1/branch3c"
  convolution_param {
    num_output: 16
    bias_term: false
    pad: 1
    kernel_size: 3
    stride: 1
    weight_filler {
      type: "xavier"
    }
    bias_filler {
      type: "constant"
    }
  }
}
layer {
  name: "stage2_1/branch3c/bn"
  type: "BatchNorm"
  bottom: "stage2_1/branch3c"
  top: "stage2_1/branch3c"
  param {
    lr_mult: 0
    decay_mult: 0
  }
  param {
    lr_mult: 0
    decay_mult: 0
  }
  param {
    lr_mult: 0
    decay_mult: 0
  }
  batch_norm_param {
    moving_average_fraction: 0.999
    eps: 0.001
  }
}
layer {
  name: "stage2_1/branch3c/scale"
  type: "Scale"
  bottom: "stage2_1/branch3c"
  top: "stage2_1/branch3c"
  param {
    lr_mult: 1
    decay_mult: 0
  }
  param {
    lr_mult: 2
    decay_mult: 0
  }
  scale_param {
    filler {
      value: 1
    }
    bias_term: true
    bias_filler {
      value: 0
    }
  }
}
layer {
  name: "stage2_1/branch3c/relu"
  type: "ReLU"
  bottom: "stage2_1/branch3c"
  top: "stage2_1/branch3c"
}
layer {
  name: "stage2_1/eltwise"
  type: "Eltwise"
  bottom: "stage2_1/branch1"
  bottom: "stage2_1/branch2b"
  bottom: "stage2_1/branch3c"
  top: "stage2_1/eltwise"
  eltwise_param {
    operation: MAX
  }
}
layer {
  name: "stage2_1/concat"
  type: "Concat"
  bottom: "stage1_tb/pool"
  bottom: "stage2_1/eltwise"
  top: "stage2_1/concat"
  concat_param {
    axis: 1
  }
}
layer {
  name: "stage2_2/branch1"
  type: "Convolution"
  bottom: "stage2_1/concat"
  top: "stage2_2/branch1"
  convolution_param {
    num_output: 16
    bias_term: false
    pad: 0
    kernel_size: 1
    stride: 1
    weight_filler {
      type: "xavier"
    }
    bias_filler {
      type: "constant"
    }
  }
}
layer {
  name: "stage2_2/branch1/bn"
  type: "BatchNorm"
  bottom: "stage2_2/branch1"
  top: "stage2_2/branch1"
  param {
    lr_mult: 0
    decay_mult: 0
  }
  param {
    lr_mult: 0
    decay_mult: 0
  }
  param {
    lr_mult: 0
    decay_mult: 0
  }
  batch_norm_param {
    moving_average_fraction: 0.999
    eps: 0.001
  }
}
layer {
  name: "stage2_2/branch1/scale"
  type: "Scale"
  bottom: "stage2_2/branch1"
  top: "stage2_2/branch1"
  param {
    lr_mult: 1
    decay_mult: 0
  }
  param {
    lr_mult: 2
    decay_mult: 0
  }
  scale_param {
    filler {
      value: 1
    }
    bias_term: true
    bias_filler {
      value: 0
    }
  }
}
layer {
  name: "stage2_2/branch1/relu"
  type: "ReLU"
  bottom: "stage2_2/branch1"
  top: "stage2_2/branch1"
}
layer {
  name: "stage2_2/branch2a"
  type: "Convolution"
  bottom: "stage2_1/concat"
  top: "stage2_2/branch2a"
  convolution_param {
    num_output: 32
    bias_term: false
    pad: 0
    kernel_size: 1
    stride: 1
    weight_filler {
      type: "xavier"
    }
    bias_filler {
      type: "constant"
    }
  }
}
layer {
  name: "stage2_2/branch2a/bn"
  type: "BatchNorm"
  bottom: "stage2_2/branch2a"
  top: "stage2_2/branch2a"
  param {
    lr_mult: 0
    decay_mult: 0
  }
  param {
    lr_mult: 0
    decay_mult: 0
  }
  param {
    lr_mult: 0
    decay_mult: 0
  }
  batch_norm_param {
    moving_average_fraction: 0.999
    eps: 0.001
  }
}
layer {
  name: "stage2_2/branch2a/scale"
  type: "Scale"
  bottom: "stage2_2/branch2a"
  top: "stage2_2/branch2a"
  param {
    lr_mult: 1
    decay_mult: 0
  }
  param {
    lr_mult: 2
    decay_mult: 0
  }
  scale_param {
    filler {
      value: 1
    }
    bias_term: true
    bias_filler {
      value: 0
    }
  }
}
layer {
  name: "stage2_2/branch2a/relu"
  type: "ReLU"
  bottom: "stage2_2/branch2a"
  top: "stage2_2/branch2a"
}
layer {
  name: "stage2_2/branch2b"
  type: "Convolution"
  bottom: "stage2_2/branch2a"
  top: "stage2_2/branch2b"
  convolution_param {
    num_output: 16
    bias_term: false
    pad: 1
    kernel_size: 3
    stride: 1
    weight_filler {
      type: "xavier"
    }
    bias_filler {
      type: "constant"
    }
  }
}
layer {
  name: "stage2_2/branch2b/bn"
  type: "BatchNorm"
  bottom: "stage2_2/branch2b"
  top: "stage2_2/branch2b"
  param {
    lr_mult: 0
    decay_mult: 0
  }
  param {
    lr_mult: 0
    decay_mult: 0
  }
  param {
    lr_mult: 0
    decay_mult: 0
  }
  batch_norm_param {
    moving_average_fraction: 0.999
    eps: 0.001
  }
}
layer {
  name: "stage2_2/branch2b/scale"
  type: "Scale"
  bottom: "stage2_2/branch2b"
  top: "stage2_2/branch2b"
  param {
    lr_mult: 1
    decay_mult: 0
  }
  param {
    lr_mult: 2
    decay_mult: 0
  }
  scale_param {
    filler {
      value: 1
    }
    bias_term: true
    bias_filler {
      value: 0
    }
  }
}
layer {
  name: "stage2_2/branch2b/relu"
  type: "ReLU"
  bottom: "stage2_2/branch2b"
  top: "stage2_2/branch2b"
}
layer {
  name: "stage2_2/branch3a"
  type: "Convolution"
  bottom: "stage2_1/concat"
  top: "stage2_2/branch3a"
  convolution_param {
    num_output: 32
    bias_term: false
    pad: 0
    kernel_size: 1
    stride: 1
    weight_filler {
      type: "xavier"
    }
    bias_filler {
      type: "constant"
    }
  }
}
layer {
  name: "stage2_2/branch3a/bn"
  type: "BatchNorm"
  bottom: "stage2_2/branch3a"
  top: "stage2_2/branch3a"
  param {
    lr_mult: 0
    decay_mult: 0
  }
  param {
    lr_mult: 0
    decay_mult: 0
  }
  param {
    lr_mult: 0
    decay_mult: 0
  }
  batch_norm_param {
    moving_average_fraction: 0.999
    eps: 0.001
  }
}
layer {
  name: "stage2_2/branch3a/scale"
  type: "Scale"
  bottom: "stage2_2/branch3a"
  top: "stage2_2/branch3a"
  param {
    lr_mult: 1
    decay_mult: 0
  }
  param {
    lr_mult: 2
    decay_mult: 0
  }
  scale_param {
    filler {
      value: 1
    }
    bias_term: true
    bias_filler {
      value: 0
    }
  }
}
layer {
  name: "stage2_2/branch3a/relu"
  type: "ReLU"
  bottom: "stage2_2/branch3a"
  top: "stage2_2/branch3a"
}
layer {
  name: "stage2_2/branch3b"
  type: "Convolution"
  bottom: "stage2_2/branch3a"
  top: "stage2_2/branch3b"
  convolution_param {
    num_output: 32
    bias_term: false
    pad: 1
    kernel_size: 3
    stride: 1
    weight_filler {
      type: "xavier"
    }
    bias_filler {
      type: "constant"
    }
  }
}
layer {
  name: "stage2_2/branch3b/bn"
  type: "BatchNorm"
  bottom: "stage2_2/branch3b"
  top: "stage2_2/branch3b"
  param {
    lr_mult: 0
    decay_mult: 0
  }
  param {
    lr_mult: 0
    decay_mult: 0
  }
  param {
    lr_mult: 0
    decay_mult: 0
  }
  batch_norm_param {
    moving_average_fraction: 0.999
    eps: 0.001
  }
}
layer {
  name: "stage2_2/branch3b/scale"
  type: "Scale"
  bottom: "stage2_2/branch3b"
  top: "stage2_2/branch3b"
  param {
    lr_mult: 1
    decay_mult: 0
  }
  param {
    lr_mult: 2
    decay_mult: 0
  }
  scale_param {
    filler {
      value: 1
    }
    bias_term: true
    bias_filler {
      value: 0
    }
  }
}
layer {
  name: "stage2_2/branch3b/relu"
  type: "ReLU"
  bottom: "stage2_2/branch3b"
  top: "stage2_2/branch3b"
}
layer {
  name: "stage2_2/branch3c"
  type: "Convolution"
  bottom: "stage2_2/branch3b"
  top: "stage2_2/branch3c"
  convolution_param {
    num_output: 16
    bias_term: false
    pad: 1
    kernel_size: 3
    stride: 1
    weight_filler {
      type: "xavier"
    }
    bias_filler {
      type: "constant"
    }
  }
}
layer {
  name: "stage2_2/branch3c/bn"
  type: "BatchNorm"
  bottom: "stage2_2/branch3c"
  top: "stage2_2/branch3c"
  param {
    lr_mult: 0
    decay_mult: 0
  }
  param {
    lr_mult: 0
    decay_mult: 0
  }
  param {
    lr_mult: 0
    decay_mult: 0
  }
  batch_norm_param {
    moving_average_fraction: 0.999
    eps: 0.001
  }
}
layer {
  name: "stage2_2/branch3c/scale"
  type: "Scale"
  bottom: "stage2_2/branch3c"
  top: "stage2_2/branch3c"
  param {
    lr_mult: 1
    decay_mult: 0
  }
  param {
    lr_mult: 2
    decay_mult: 0
  }
  scale_param {
    filler {
      value: 1
    }
    bias_term: true
    bias_filler {
      value: 0
    }
  }
}
layer {
  name: "stage2_2/branch3c/relu"
  type: "ReLU"
  bottom: "stage2_2/branch3c"
  top: "stage2_2/branch3c"
}
layer {
  name: "stage2_2/eltwise"
  type: "Eltwise"
  bottom: "stage2_2/branch1"
  bottom: "stage2_2/branch2b"
  bottom: "stage2_2/branch3c"
  top: "stage2_2/eltwise"
  eltwise_param {
    operation: MAX
  }
}
layer {
  name: "stage2_2/concat"
  type: "Concat"
  bottom: "stage2_1/concat"
  bottom: "stage2_2/eltwise"
  top: "stage2_2/concat"
  concat_param {
    axis: 1
  }
}
layer {
  name: "stage2_3/branch1"
  type: "Convolution"
  bottom: "stage2_2/concat"
  top: "stage2_3/branch1"
  convolution_param {
    num_output: 16
    bias_term: false
    pad: 0
    kernel_size: 1
    stride: 1
    weight_filler {
      type: "xavier"
    }
    bias_filler {
      type: "constant"
    }
  }
}
layer {
  name: "stage2_3/branch1/bn"
  type: "BatchNorm"
  bottom: "stage2_3/branch1"
  top: "stage2_3/branch1"
  param {
    lr_mult: 0
    decay_mult: 0
  }
  param {
    lr_mult: 0
    decay_mult: 0
  }
  param {
    lr_mult: 0
    decay_mult: 0
  }
  batch_norm_param {
    moving_average_fraction: 0.999
    eps: 0.001
  }
}
layer {
  name: "stage2_3/branch1/scale"
  type: "Scale"
  bottom: "stage2_3/branch1"
  top: "stage2_3/branch1"
  param {
    lr_mult: 1
    decay_mult: 0
  }
  param {
    lr_mult: 2
    decay_mult: 0
  }
  scale_param {
    filler {
      value: 1
    }
    bias_term: true
    bias_filler {
      value: 0
    }
  }
}
layer {
  name: "stage2_3/branch1/relu"
  type: "ReLU"
  bottom: "stage2_3/branch1"
  top: "stage2_3/branch1"
}
layer {
  name: "stage2_3/branch2a"
  type: "Convolution"
  bottom: "stage2_2/concat"
  top: "stage2_3/branch2a"
  convolution_param {
    num_output: 32
    bias_term: false
    pad: 0
    kernel_size: 1
    stride: 1
    weight_filler {
      type: "xavier"
    }
    bias_filler {
      type: "constant"
    }
  }
}
layer {
  name: "stage2_3/branch2a/bn"
  type: "BatchNorm"
  bottom: "stage2_3/branch2a"
  top: "stage2_3/branch2a"
  param {
    lr_mult: 0
    decay_mult: 0
  }
  param {
    lr_mult: 0
    decay_mult: 0
  }
  param {
    lr_mult: 0
    decay_mult: 0
  }
  batch_norm_param {
    moving_average_fraction: 0.999
    eps: 0.001
  }
}
layer {
  name: "stage2_3/branch2a/scale"
  type: "Scale"
  bottom: "stage2_3/branch2a"
  top: "stage2_3/branch2a"
  param {
    lr_mult: 1
    decay_mult: 0
  }
  param {
    lr_mult: 2
    decay_mult: 0
  }
  scale_param {
    filler {
      value: 1
    }
    bias_term: true
    bias_filler {
      value: 0
    }
  }
}
layer {
  name: "stage2_3/branch2a/relu"
  type: "ReLU"
  bottom: "stage2_3/branch2a"
  top: "stage2_3/branch2a"
}
layer {
  name: "stage2_3/branch2b"
  type: "Convolution"
  bottom: "stage2_3/branch2a"
  top: "stage2_3/branch2b"
  convolution_param {
    num_output: 16
    bias_term: false
    pad: 1
    kernel_size: 3
    stride: 1
    weight_filler {
      type: "xavier"
    }
    bias_filler {
      type: "constant"
    }
  }
}
layer {
  name: "stage2_3/branch2b/bn"
  type: "BatchNorm"
  bottom: "stage2_3/branch2b"
  top: "stage2_3/branch2b"
  param {
    lr_mult: 0
    decay_mult: 0
  }
  param {
    lr_mult: 0
    decay_mult: 0
  }
  param {
    lr_mult: 0
    decay_mult: 0
  }
  batch_norm_param {
    moving_average_fraction: 0.999
    eps: 0.001
  }
}
layer {
  name: "stage2_3/branch2b/scale"
  type: "Scale"
  bottom: "stage2_3/branch2b"
  top: "stage2_3/branch2b"
  param {
    lr_mult: 1
    decay_mult: 0
  }
  param {
    lr_mult: 2
    decay_mult: 0
  }
  scale_param {
    filler {
      value: 1
    }
    bias_term: true
    bias_filler {
      value: 0
    }
  }
}
layer {
  name: "stage2_3/branch2b/relu"
  type: "ReLU"
  bottom: "stage2_3/branch2b"
  top: "stage2_3/branch2b"
}
layer {
  name: "stage2_3/branch3a"
  type: "Convolution"
  bottom: "stage2_2/concat"
  top: "stage2_3/branch3a"
  convolution_param {
    num_output: 32
    bias_term: false
    pad: 0
    kernel_size: 1
    stride: 1
    weight_filler {
      type: "xavier"
    }
    bias_filler {
      type: "constant"
    }
  }
}
layer {
  name: "stage2_3/branch3a/bn"
  type: "BatchNorm"
  bottom: "stage2_3/branch3a"
  top: "stage2_3/branch3a"
  param {
    lr_mult: 0
    decay_mult: 0
  }
  param {
    lr_mult: 0
    decay_mult: 0
  }
  param {
    lr_mult: 0
    decay_mult: 0
  }
  batch_norm_param {
    moving_average_fraction: 0.999
    eps: 0.001
  }
}
layer {
  name: "stage2_3/branch3a/scale"
  type: "Scale"
  bottom: "stage2_3/branch3a"
  top: "stage2_3/branch3a"
  param {
    lr_mult: 1
    decay_mult: 0
  }
  param {
    lr_mult: 2
    decay_mult: 0
  }
  scale_param {
    filler {
      value: 1
    }
    bias_term: true
    bias_filler {
      value: 0
    }
  }
}
layer {
  name: "stage2_3/branch3a/relu"
  type: "ReLU"
  bottom: "stage2_3/branch3a"
  top: "stage2_3/branch3a"
}
layer {
  name: "stage2_3/branch3b"
  type: "Convolution"
  bottom: "stage2_3/branch3a"
  top: "stage2_3/branch3b"
  convolution_param {
    num_output: 32
    bias_term: false
    pad: 1
    kernel_size: 3
    stride: 1
    weight_filler {
      type: "xavier"
    }
    bias_filler {
      type: "constant"
    }
  }
}
layer {
  name: "stage2_3/branch3b/bn"
  type: "BatchNorm"
  bottom: "stage2_3/branch3b"
  top: "stage2_3/branch3b"
  param {
    lr_mult: 0
    decay_mult: 0
  }
  param {
    lr_mult: 0
    decay_mult: 0
  }
  param {
    lr_mult: 0
    decay_mult: 0
  }
  batch_norm_param {
    moving_average_fraction: 0.999
    eps: 0.001
  }
}
layer {
  name: "stage2_3/branch3b/scale"
  type: "Scale"
  bottom: "stage2_3/branch3b"
  top: "stage2_3/branch3b"
  param {
    lr_mult: 1
    decay_mult: 0
  }
  param {
    lr_mult: 2
    decay_mult: 0
  }
  scale_param {
    filler {
      value: 1
    }
    bias_term: true
    bias_filler {
      value: 0
    }
  }
}
layer {
  name: "stage2_3/branch3b/relu"
  type: "ReLU"
  bottom: "stage2_3/branch3b"
  top: "stage2_3/branch3b"
}
layer {
  name: "stage2_3/branch3c"
  type: "Convolution"
  bottom: "stage2_3/branch3b"
  top: "stage2_3/branch3c"
  convolution_param {
    num_output: 16
    bias_term: false
    pad: 1
    kernel_size: 3
    stride: 1
    weight_filler {
      type: "xavier"
    }
    bias_filler {
      type: "constant"
    }
  }
}
layer {
  name: "stage2_3/branch3c/bn"
  type: "BatchNorm"
  bottom: "stage2_3/branch3c"
  top: "stage2_3/branch3c"
  param {
    lr_mult: 0
    decay_mult: 0
  }
  param {
    lr_mult: 0
    decay_mult: 0
  }
  param {
    lr_mult: 0
    decay_mult: 0
  }
  batch_norm_param {
    moving_average_fraction: 0.999
    eps: 0.001
  }
}
layer {
  name: "stage2_3/branch3c/scale"
  type: "Scale"
  bottom: "stage2_3/branch3c"
  top: "stage2_3/branch3c"
  param {
    lr_mult: 1
    decay_mult: 0
  }
  param {
    lr_mult: 2
    decay_mult: 0
  }
  scale_param {
    filler {
      value: 1
    }
    bias_term: true
    bias_filler {
      value: 0
    }
  }
}
layer {
  name: "stage2_3/branch3c/relu"
  type: "ReLU"
  bottom: "stage2_3/branch3c"
  top: "stage2_3/branch3c"
}
layer {
  name: "stage2_3/eltwise"
  type: "Eltwise"
  bottom: "stage2_3/branch1"
  bottom: "stage2_3/branch2b"
  bottom: "stage2_3/branch3c"
  top: "stage2_3/eltwise"
  eltwise_param {
    operation: MAX
  }
}
layer {
  name: "stage2_3/concat"
  type: "Concat"
  bottom: "stage2_2/concat"
  bottom: "stage2_3/eltwise"
  top: "stage2_3/concat"
  concat_param {
    axis: 1
  }
}
layer {
  name: "stage2_4/branch1"
  type: "Convolution"
  bottom: "stage2_3/concat"
  top: "stage2_4/branch1"
  convolution_param {
    num_output: 16
    bias_term: false
    pad: 0
    kernel_size: 1
    stride: 1
    weight_filler {
      type: "xavier"
    }
    bias_filler {
      type: "constant"
    }
  }
}
layer {
  name: "stage2_4/branch1/bn"
  type: "BatchNorm"
  bottom: "stage2_4/branch1"
  top: "stage2_4/branch1"
  param {
    lr_mult: 0
    decay_mult: 0
  }
  param {
    lr_mult: 0
    decay_mult: 0
  }
  param {
    lr_mult: 0
    decay_mult: 0
  }
  batch_norm_param {
    moving_average_fraction: 0.999
    eps: 0.001
  }
}
layer {
  name: "stage2_4/branch1/scale"
  type: "Scale"
  bottom: "stage2_4/branch1"
  top: "stage2_4/branch1"
  param {
    lr_mult: 1
    decay_mult: 0
  }
  param {
    lr_mult: 2
    decay_mult: 0
  }
  scale_param {
    filler {
      value: 1
    }
    bias_term: true
    bias_filler {
      value: 0
    }
  }
}
layer {
  name: "stage2_4/branch1/relu"
  type: "ReLU"
  bottom: "stage2_4/branch1"
  top: "stage2_4/branch1"
}
layer {
  name: "stage2_4/branch2a"
  type: "Convolution"
  bottom: "stage2_3/concat"
  top: "stage2_4/branch2a"
  convolution_param {
    num_output: 32
    bias_term: false
    pad: 0
    kernel_size: 1
    stride: 1
    weight_filler {
      type: "xavier"
    }
    bias_filler {
      type: "constant"
    }
  }
}
layer {
  name: "stage2_4/branch2a/bn"
  type: "BatchNorm"
  bottom: "stage2_4/branch2a"
  top: "stage2_4/branch2a"
  param {
    lr_mult: 0
    decay_mult: 0
  }
  param {
    lr_mult: 0
    decay_mult: 0
  }
  param {
    lr_mult: 0
    decay_mult: 0
  }
  batch_norm_param {
    moving_average_fraction: 0.999
    eps: 0.001
  }
}
layer {
  name: "stage2_4/branch2a/scale"
  type: "Scale"
  bottom: "stage2_4/branch2a"
  top: "stage2_4/branch2a"
  param {
    lr_mult: 1
    decay_mult: 0
  }
  param {
    lr_mult: 2
    decay_mult: 0
  }
  scale_param {
    filler {
      value: 1
    }
    bias_term: true
    bias_filler {
      value: 0
    }
  }
}
layer {
  name: "stage2_4/branch2a/relu"
  type: "ReLU"
  bottom: "stage2_4/branch2a"
  top: "stage2_4/branch2a"
}
layer {
  name: "stage2_4/branch2b"
  type: "Convolution"
  bottom: "stage2_4/branch2a"
  top: "stage2_4/branch2b"
  convolution_param {
    num_output: 16
    bias_term: false
    pad: 1
    kernel_size: 3
    stride: 1
    weight_filler {
      type: "xavier"
    }
    bias_filler {
      type: "constant"
    }
  }
}
layer {
  name: "stage2_4/branch2b/bn"
  type: "BatchNorm"
  bottom: "stage2_4/branch2b"
  top: "stage2_4/branch2b"
  param {
    lr_mult: 0
    decay_mult: 0
  }
  param {
    lr_mult: 0
    decay_mult: 0
  }
  param {
    lr_mult: 0
    decay_mult: 0
  }
  batch_norm_param {
    moving_average_fraction: 0.999
    eps: 0.001
  }
}
layer {
  name: "stage2_4/branch2b/scale"
  type: "Scale"
  bottom: "stage2_4/branch2b"
  top: "stage2_4/branch2b"
  param {
    lr_mult: 1
    decay_mult: 0
  }
  param {
    lr_mult: 2
    decay_mult: 0
  }
  scale_param {
    filler {
      value: 1
    }
    bias_term: true
    bias_filler {
      value: 0
    }
  }
}
layer {
  name: "stage2_4/branch2b/relu"
  type: "ReLU"
  bottom: "stage2_4/branch2b"
  top: "stage2_4/branch2b"
}
layer {
  name: "stage2_4/branch3a"
  type: "Convolution"
  bottom: "stage2_3/concat"
  top: "stage2_4/branch3a"
  convolution_param {
    num_output: 32
    bias_term: false
    pad: 0
    kernel_size: 1
    stride: 1
    weight_filler {
      type: "xavier"
    }
    bias_filler {
      type: "constant"
    }
  }
}
layer {
  name: "stage2_4/branch3a/bn"
  type: "BatchNorm"
  bottom: "stage2_4/branch3a"
  top: "stage2_4/branch3a"
  param {
    lr_mult: 0
    decay_mult: 0
  }
  param {
    lr_mult: 0
    decay_mult: 0
  }
  param {
    lr_mult: 0
    decay_mult: 0
  }
  batch_norm_param {
    moving_average_fraction: 0.999
    eps: 0.001
  }
}
layer {
  name: "stage2_4/branch3a/scale"
  type: "Scale"
  bottom: "stage2_4/branch3a"
  top: "stage2_4/branch3a"
  param {
    lr_mult: 1
    decay_mult: 0
  }
  param {
    lr_mult: 2
    decay_mult: 0
  }
  scale_param {
    filler {
      value: 1
    }
    bias_term: true
    bias_filler {
      value: 0
    }
  }
}
layer {
  name: "stage2_4/branch3a/relu"
  type: "ReLU"
  bottom: "stage2_4/branch3a"
  top: "stage2_4/branch3a"
}
layer {
  name: "stage2_4/branch3b"
  type: "Convolution"
  bottom: "stage2_4/branch3a"
  top: "stage2_4/branch3b"
  convolution_param {
    num_output: 32
    bias_term: false
    pad: 1
    kernel_size: 3
    stride: 1
    weight_filler {
      type: "xavier"
    }
    bias_filler {
      type: "constant"
    }
  }
}
layer {
  name: "stage2_4/branch3b/bn"
  type: "BatchNorm"
  bottom: "stage2_4/branch3b"
  top: "stage2_4/branch3b"
  param {
    lr_mult: 0
    decay_mult: 0
  }
  param {
    lr_mult: 0
    decay_mult: 0
  }
  param {
    lr_mult: 0
    decay_mult: 0
  }
  batch_norm_param {
    moving_average_fraction: 0.999
    eps: 0.001
  }
}
layer {
  name: "stage2_4/branch3b/scale"
  type: "Scale"
  bottom: "stage2_4/branch3b"
  top: "stage2_4/branch3b"
  param {
    lr_mult: 1
    decay_mult: 0
  }
  param {
    lr_mult: 2
    decay_mult: 0
  }
  scale_param {
    filler {
      value: 1
    }
    bias_term: true
    bias_filler {
      value: 0
    }
  }
}
layer {
  name: "stage2_4/branch3b/relu"
  type: "ReLU"
  bottom: "stage2_4/branch3b"
  top: "stage2_4/branch3b"
}
layer {
  name: "stage2_4/branch3c"
  type: "Convolution"
  bottom: "stage2_4/branch3b"
  top: "stage2_4/branch3c"
  convolution_param {
    num_output: 16
    bias_term: false
    pad: 1
    kernel_size: 3
    stride: 1
    weight_filler {
      type: "xavier"
    }
    bias_filler {
      type: "constant"
    }
  }
}
layer {
  name: "stage2_4/branch3c/bn"
  type: "BatchNorm"
  bottom: "stage2_4/branch3c"
  top: "stage2_4/branch3c"
  param {
    lr_mult: 0
    decay_mult: 0
  }
  param {
    lr_mult: 0
    decay_mult: 0
  }
  param {
    lr_mult: 0
    decay_mult: 0
  }
  batch_norm_param {
    moving_average_fraction: 0.999
    eps: 0.001
  }
}
layer {
  name: "stage2_4/branch3c/scale"
  type: "Scale"
  bottom: "stage2_4/branch3c"
  top: "stage2_4/branch3c"
  param {
    lr_mult: 1
    decay_mult: 0
  }
  param {
    lr_mult: 2
    decay_mult: 0
  }
  scale_param {
    filler {
      value: 1
    }
    bias_term: true
    bias_filler {
      value: 0
    }
  }
}
layer {
  name: "stage2_4/branch3c/relu"
  type: "ReLU"
  bottom: "stage2_4/branch3c"
  top: "stage2_4/branch3c"
}
layer {
  name: "stage2_4/eltwise"
  type: "Eltwise"
  bottom: "stage2_4/branch1"
  bottom: "stage2_4/branch2b"
  bottom: "stage2_4/branch3c"
  top: "stage2_4/eltwise"
  eltwise_param {
    operation: MAX
  }
}
layer {
  name: "stage2_4/concat"
  type: "Concat"
  bottom: "stage2_3/concat"
  bottom: "stage2_4/eltwise"
  top: "stage2_4/concat"
  concat_param {
    axis: 1
  }
}
layer {
  name: "stage2_5/branch1"
  type: "Convolution"
  bottom: "stage2_4/concat"
  top: "stage2_5/branch1"
  convolution_param {
    num_output: 16
    bias_term: false
    pad: 0
    kernel_size: 1
    stride: 1
    weight_filler {
      type: "xavier"
    }
    bias_filler {
      type: "constant"
    }
  }
}
layer {
  name: "stage2_5/branch1/bn"
  type: "BatchNorm"
  bottom: "stage2_5/branch1"
  top: "stage2_5/branch1"
  param {
    lr_mult: 0
    decay_mult: 0
  }
  param {
    lr_mult: 0
    decay_mult: 0
  }
  param {
    lr_mult: 0
    decay_mult: 0
  }
  batch_norm_param {
    moving_average_fraction: 0.999
    eps: 0.001
  }
}
layer {
  name: "stage2_5/branch1/scale"
  type: "Scale"
  bottom: "stage2_5/branch1"
  top: "stage2_5/branch1"
  param {
    lr_mult: 1
    decay_mult: 0
  }
  param {
    lr_mult: 2
    decay_mult: 0
  }
  scale_param {
    filler {
      value: 1
    }
    bias_term: true
    bias_filler {
      value: 0
    }
  }
}
layer {
  name: "stage2_5/branch1/relu"
  type: "ReLU"
  bottom: "stage2_5/branch1"
  top: "stage2_5/branch1"
}
layer {
  name: "stage2_5/branch2a"
  type: "Convolution"
  bottom: "stage2_4/concat"
  top: "stage2_5/branch2a"
  convolution_param {
    num_output: 32
    bias_term: false
    pad: 0
    kernel_size: 1
    stride: 1
    weight_filler {
      type: "xavier"
    }
    bias_filler {
      type: "constant"
    }
  }
}
layer {
  name: "stage2_5/branch2a/bn"
  type: "BatchNorm"
  bottom: "stage2_5/branch2a"
  top: "stage2_5/branch2a"
  param {
    lr_mult: 0
    decay_mult: 0
  }
  param {
    lr_mult: 0
    decay_mult: 0
  }
  param {
    lr_mult: 0
    decay_mult: 0
  }
  batch_norm_param {
    moving_average_fraction: 0.999
    eps: 0.001
  }
}
layer {
  name: "stage2_5/branch2a/scale"
  type: "Scale"
  bottom: "stage2_5/branch2a"
  top: "stage2_5/branch2a"
  param {
    lr_mult: 1
    decay_mult: 0
  }
  param {
    lr_mult: 2
    decay_mult: 0
  }
  scale_param {
    filler {
      value: 1
    }
    bias_term: true
    bias_filler {
      value: 0
    }
  }
}
layer {
  name: "stage2_5/branch2a/relu"
  type: "ReLU"
  bottom: "stage2_5/branch2a"
  top: "stage2_5/branch2a"
}
layer {
  name: "stage2_5/branch2b"
  type: "Convolution"
  bottom: "stage2_5/branch2a"
  top: "stage2_5/branch2b"
  convolution_param {
    num_output: 16
    bias_term: false
    pad: 1
    kernel_size: 3
    stride: 1
    weight_filler {
      type: "xavier"
    }
    bias_filler {
      type: "constant"
    }
  }
}
layer {
  name: "stage2_5/branch2b/bn"
  type: "BatchNorm"
  bottom: "stage2_5/branch2b"
  top: "stage2_5/branch2b"
  param {
    lr_mult: 0
    decay_mult: 0
  }
  param {
    lr_mult: 0
    decay_mult: 0
  }
  param {
    lr_mult: 0
    decay_mult: 0
  }
  batch_norm_param {
    moving_average_fraction: 0.999
    eps: 0.001
  }
}
layer {
  name: "stage2_5/branch2b/scale"
  type: "Scale"
  bottom: "stage2_5/branch2b"
  top: "stage2_5/branch2b"
  param {
    lr_mult: 1
    decay_mult: 0
  }
  param {
    lr_mult: 2
    decay_mult: 0
  }
  scale_param {
    filler {
      value: 1
    }
    bias_term: true
    bias_filler {
      value: 0
    }
  }
}
layer {
  name: "stage2_5/branch2b/relu"
  type: "ReLU"
  bottom: "stage2_5/branch2b"
  top: "stage2_5/branch2b"
}
layer {
  name: "stage2_5/branch3a"
  type: "Convolution"
  bottom: "stage2_4/concat"
  top: "stage2_5/branch3a"
  convolution_param {
    num_output: 32
    bias_term: false
    pad: 0
    kernel_size: 1
    stride: 1
    weight_filler {
      type: "xavier"
    }
    bias_filler {
      type: "constant"
    }
  }
}
layer {
  name: "stage2_5/branch3a/bn"
  type: "BatchNorm"
  bottom: "stage2_5/branch3a"
  top: "stage2_5/branch3a"
  param {
    lr_mult: 0
    decay_mult: 0
  }
  param {
    lr_mult: 0
    decay_mult: 0
  }
  param {
    lr_mult: 0
    decay_mult: 0
  }
  batch_norm_param {
    moving_average_fraction: 0.999
    eps: 0.001
  }
}
layer {
  name: "stage2_5/branch3a/scale"
  type: "Scale"
  bottom: "stage2_5/branch3a"
  top: "stage2_5/branch3a"
  param {
    lr_mult: 1
    decay_mult: 0
  }
  param {
    lr_mult: 2
    decay_mult: 0
  }
  scale_param {
    filler {
      value: 1
    }
    bias_term: true
    bias_filler {
      value: 0
    }
  }
}
layer {
  name: "stage2_5/branch3a/relu"
  type: "ReLU"
  bottom: "stage2_5/branch3a"
  top: "stage2_5/branch3a"
}
layer {
  name: "stage2_5/branch3b"
  type: "Convolution"
  bottom: "stage2_5/branch3a"
  top: "stage2_5/branch3b"
  convolution_param {
    num_output: 32
    bias_term: false
    pad: 1
    kernel_size: 3
    stride: 1
    weight_filler {
      type: "xavier"
    }
    bias_filler {
      type: "constant"
    }
  }
}
layer {
  name: "stage2_5/branch3b/bn"
  type: "BatchNorm"
  bottom: "stage2_5/branch3b"
  top: "stage2_5/branch3b"
  param {
    lr_mult: 0
    decay_mult: 0
  }
  param {
    lr_mult: 0
    decay_mult: 0
  }
  param {
    lr_mult: 0
    decay_mult: 0
  }
  batch_norm_param {
    moving_average_fraction: 0.999
    eps: 0.001
  }
}
layer {
  name: "stage2_5/branch3b/scale"
  type: "Scale"
  bottom: "stage2_5/branch3b"
  top: "stage2_5/branch3b"
  param {
    lr_mult: 1
    decay_mult: 0
  }
  param {
    lr_mult: 2
    decay_mult: 0
  }
  scale_param {
    filler {
      value: 1
    }
    bias_term: true
    bias_filler {
      value: 0
    }
  }
}
layer {
  name: "stage2_5/branch3b/relu"
  type: "ReLU"
  bottom: "stage2_5/branch3b"
  top: "stage2_5/branch3b"
}
layer {
  name: "stage2_5/branch3c"
  type: "Convolution"
  bottom: "stage2_5/branch3b"
  top: "stage2_5/branch3c"
  convolution_param {
    num_output: 16
    bias_term: false
    pad: 1
    kernel_size: 3
    stride: 1
    weight_filler {
      type: "xavier"
    }
    bias_filler {
      type: "constant"
    }
  }
}
layer {
  name: "stage2_5/branch3c/bn"
  type: "BatchNorm"
  bottom: "stage2_5/branch3c"
  top: "stage2_5/branch3c"
  param {
    lr_mult: 0
    decay_mult: 0
  }
  param {
    lr_mult: 0
    decay_mult: 0
  }
  param {
    lr_mult: 0
    decay_mult: 0
  }
  batch_norm_param {
    moving_average_fraction: 0.999
    eps: 0.001
  }
}
layer {
  name: "stage2_5/branch3c/scale"
  type: "Scale"
  bottom: "stage2_5/branch3c"
  top: "stage2_5/branch3c"
  param {
    lr_mult: 1
    decay_mult: 0
  }
  param {
    lr_mult: 2
    decay_mult: 0
  }
  scale_param {
    filler {
      value: 1
    }
    bias_term: true
    bias_filler {
      value: 0
    }
  }
}
layer {
  name: "stage2_5/branch3c/relu"
  type: "ReLU"
  bottom: "stage2_5/branch3c"
  top: "stage2_5/branch3c"
}
layer {
  name: "stage2_5/eltwise"
  type: "Eltwise"
  bottom: "stage2_5/branch1"
  bottom: "stage2_5/branch2b"
  bottom: "stage2_5/branch3c"
  top: "stage2_5/eltwise"
  eltwise_param {
    operation: MAX
  }
}
layer {
  name: "stage2_5/concat"
  type: "Concat"
  bottom: "stage2_4/concat"
  bottom: "stage2_5/eltwise"
  top: "stage2_5/concat"
  concat_param {
    axis: 1
  }
}
layer {
  name: "stage2_tb"
  type: "Convolution"
  bottom: "stage2_5/concat"
  top: "stage2_tb"
  convolution_param {
    num_output: 160
    bias_term: false
    pad: 0
    kernel_size: 1
    stride: 1
    weight_filler {
      type: "xavier"
    }
    bias_filler {
      type: "constant"
    }
  }
}
layer {
  name: "stage2_tb/bn"
  type: "BatchNorm"
  bottom: "stage2_tb"
  top: "stage2_tb"
  param {
    lr_mult: 0
    decay_mult: 0
  }
  param {
    lr_mult: 0
    decay_mult: 0
  }
  param {
    lr_mult: 0
    decay_mult: 0
  }
  batch_norm_param {
    moving_average_fraction: 0.999
    eps: 0.001
  }
}
layer {
  name: "stage2_tb/scale"
  type: "Scale"
  bottom: "stage2_tb"
  top: "stage2_tb"
  param {
    lr_mult: 1
    decay_mult: 0
  }
  param {
    lr_mult: 2
    decay_mult: 0
  }
  scale_param {
    filler {
      value: 1
    }
    bias_term: true
    bias_filler {
      value: 0
    }
  }
}
layer {
  name: "stage2_tb/relu"
  type: "ReLU"
  bottom: "stage2_tb"
  top: "stage2_tb"
}
layer {
  name: "stage2_tb/pool"
  type: "Pooling"
  bottom: "stage2_tb"
  top: "stage2_tb/pool"
  pooling_param {
    pool: MAX
    kernel_size: 2
    stride: 2
  }
}
layer {
  name: "stage3_1/branch1"
  type: "Convolution"
  bottom: "stage2_tb/pool"
  top: "stage3_1/branch1"
  convolution_param {
    num_output: 16
    bias_term: false
    pad: 0
    kernel_size: 1
    stride: 1
    weight_filler {
      type: "xavier"
    }
    bias_filler {
      type: "constant"
    }
  }
}
layer {
  name: "stage3_1/branch1/bn"
  type: "BatchNorm"
  bottom: "stage3_1/branch1"
  top: "stage3_1/branch1"
  param {
    lr_mult: 0
    decay_mult: 0
  }
  param {
    lr_mult: 0
    decay_mult: 0
  }
  param {
    lr_mult: 0
    decay_mult: 0
  }
  batch_norm_param {
    moving_average_fraction: 0.999
    eps: 0.001
  }
}
layer {
  name: "stage3_1/branch1/scale"
  type: "Scale"
  bottom: "stage3_1/branch1"
  top: "stage3_1/branch1"
  param {
    lr_mult: 1
    decay_mult: 0
  }
  param {
    lr_mult: 2
    decay_mult: 0
  }
  scale_param {
    filler {
      value: 1
    }
    bias_term: true
    bias_filler {
      value: 0
    }
  }
}
layer {
  name: "stage3_1/branch1/relu"
  type: "ReLU"
  bottom: "stage3_1/branch1"
  top: "stage3_1/branch1"
}
layer {
  name: "stage3_1/branch2a"
  type: "Convolution"
  bottom: "stage2_tb/pool"
  top: "stage3_1/branch2a"
  convolution_param {
    num_output: 64
    bias_term: false
    pad: 0
    kernel_size: 1
    stride: 1
    weight_filler {
      type: "xavier"
    }
    bias_filler {
      type: "constant"
    }
  }
}
layer {
  name: "stage3_1/branch2a/bn"
  type: "BatchNorm"
  bottom: "stage3_1/branch2a"
  top: "stage3_1/branch2a"
  param {
    lr_mult: 0
    decay_mult: 0
  }
  param {
    lr_mult: 0
    decay_mult: 0
  }
  param {
    lr_mult: 0
    decay_mult: 0
  }
  batch_norm_param {
    moving_average_fraction: 0.999
    eps: 0.001
  }
}
layer {
  name: "stage3_1/branch2a/scale"
  type: "Scale"
  bottom: "stage3_1/branch2a"
  top: "stage3_1/branch2a"
  param {
    lr_mult: 1
    decay_mult: 0
  }
  param {
    lr_mult: 2
    decay_mult: 0
  }
  scale_param {
    filler {
      value: 1
    }
    bias_term: true
    bias_filler {
      value: 0
    }
  }
}
layer {
  name: "stage3_1/branch2a/relu"
  type: "ReLU"
  bottom: "stage3_1/branch2a"
  top: "stage3_1/branch2a"
}
layer {
  name: "stage3_1/branch2b"
  type: "Convolution"
  bottom: "stage3_1/branch2a"
  top: "stage3_1/branch2b"
  convolution_param {
    num_output: 16
    bias_term: false
    pad: 1
    kernel_size: 3
    stride: 1
    weight_filler {
      type: "xavier"
    }
    bias_filler {
      type: "constant"
    }
  }
}
layer {
  name: "stage3_1/branch2b/bn"
  type: "BatchNorm"
  bottom: "stage3_1/branch2b"
  top: "stage3_1/branch2b"
  param {
    lr_mult: 0
    decay_mult: 0
  }
  param {
    lr_mult: 0
    decay_mult: 0
  }
  param {
    lr_mult: 0
    decay_mult: 0
  }
  batch_norm_param {
    moving_average_fraction: 0.999
    eps: 0.001
  }
}
layer {
  name: "stage3_1/branch2b/scale"
  type: "Scale"
  bottom: "stage3_1/branch2b"
  top: "stage3_1/branch2b"
  param {
    lr_mult: 1
    decay_mult: 0
  }
  param {
    lr_mult: 2
    decay_mult: 0
  }
  scale_param {
    filler {
      value: 1
    }
    bias_term: true
    bias_filler {
      value: 0
    }
  }
}
layer {
  name: "stage3_1/branch2b/relu"
  type: "ReLU"
  bottom: "stage3_1/branch2b"
  top: "stage3_1/branch2b"
}
layer {
  name: "stage3_1/branch3a"
  type: "Convolution"
  bottom: "stage2_tb/pool"
  top: "stage3_1/branch3a"
  convolution_param {
    num_output: 64
    bias_term: false
    pad: 0
    kernel_size: 1
    stride: 1
    weight_filler {
      type: "xavier"
    }
    bias_filler {
      type: "constant"
    }
  }
}
layer {
  name: "stage3_1/branch3a/bn"
  type: "BatchNorm"
  bottom: "stage3_1/branch3a"
  top: "stage3_1/branch3a"
  param {
    lr_mult: 0
    decay_mult: 0
  }
  param {
    lr_mult: 0
    decay_mult: 0
  }
  param {
    lr_mult: 0
    decay_mult: 0
  }
  batch_norm_param {
    moving_average_fraction: 0.999
    eps: 0.001
  }
}
layer {
  name: "stage3_1/branch3a/scale"
  type: "Scale"
  bottom: "stage3_1/branch3a"
  top: "stage3_1/branch3a"
  param {
    lr_mult: 1
    decay_mult: 0
  }
  param {
    lr_mult: 2
    decay_mult: 0
  }
  scale_param {
    filler {
      value: 1
    }
    bias_term: true
    bias_filler {
      value: 0
    }
  }
}
layer {
  name: "stage3_1/branch3a/relu"
  type: "ReLU"
  bottom: "stage3_1/branch3a"
  top: "stage3_1/branch3a"
}
layer {
  name: "stage3_1/branch3b"
  type: "Convolution"
  bottom: "stage3_1/branch3a"
  top: "stage3_1/branch3b"
  convolution_param {
    num_output: 64
    bias_term: false
    pad: 1
    kernel_size: 3
    stride: 1
    weight_filler {
      type: "xavier"
    }
    bias_filler {
      type: "constant"
    }
  }
}
layer {
  name: "stage3_1/branch3b/bn"
  type: "BatchNorm"
  bottom: "stage3_1/branch3b"
  top: "stage3_1/branch3b"
  param {
    lr_mult: 0
    decay_mult: 0
  }
  param {
    lr_mult: 0
    decay_mult: 0
  }
  param {
    lr_mult: 0
    decay_mult: 0
  }
  batch_norm_param {
    moving_average_fraction: 0.999
    eps: 0.001
  }
}
layer {
  name: "stage3_1/branch3b/scale"
  type: "Scale"
  bottom: "stage3_1/branch3b"
  top: "stage3_1/branch3b"
  param {
    lr_mult: 1
    decay_mult: 0
  }
  param {
    lr_mult: 2
    decay_mult: 0
  }
  scale_param {
    filler {
      value: 1
    }
    bias_term: true
    bias_filler {
      value: 0
    }
  }
}
layer {
  name: "stage3_1/branch3b/relu"
  type: "ReLU"
  bottom: "stage3_1/branch3b"
  top: "stage3_1/branch3b"
}
layer {
  name: "stage3_1/branch3c"
  type: "Convolution"
  bottom: "stage3_1/branch3b"
  top: "stage3_1/branch3c"
  convolution_param {
    num_output: 16
    bias_term: false
    pad: 1
    kernel_size: 3
    stride: 1
    weight_filler {
      type: "xavier"
    }
    bias_filler {
      type: "constant"
    }
  }
}
layer {
  name: "stage3_1/branch3c/bn"
  type: "BatchNorm"
  bottom: "stage3_1/branch3c"
  top: "stage3_1/branch3c"
  param {
    lr_mult: 0
    decay_mult: 0
  }
  param {
    lr_mult: 0
    decay_mult: 0
  }
  param {
    lr_mult: 0
    decay_mult: 0
  }
  batch_norm_param {
    moving_average_fraction: 0.999
    eps: 0.001
  }
}
layer {
  name: "stage3_1/branch3c/scale"
  type: "Scale"
  bottom: "stage3_1/branch3c"
  top: "stage3_1/branch3c"
  param {
    lr_mult: 1
    decay_mult: 0
  }
  param {
    lr_mult: 2
    decay_mult: 0
  }
  scale_param {
    filler {
      value: 1
    }
    bias_term: true
    bias_filler {
      value: 0
    }
  }
}
layer {
  name: "stage3_1/branch3c/relu"
  type: "ReLU"
  bottom: "stage3_1/branch3c"
  top: "stage3_1/branch3c"
}
layer {
  name: "stage3_1/eltwise"
  type: "Eltwise"
  bottom: "stage3_1/branch1"
  bottom: "stage3_1/branch2b"
  bottom: "stage3_1/branch3c"
  top: "stage3_1/eltwise"
  eltwise_param {
    operation: MAX
  }
}
layer {
  name: "stage3_1/concat"
  type: "Concat"
  bottom: "stage2_tb/pool"
  bottom: "stage3_1/eltwise"
  top: "stage3_1/concat"
  concat_param {
    axis: 1
  }
}
layer {
  name: "stage3_2/branch1"
  type: "Convolution"
  bottom: "stage3_1/concat"
  top: "stage3_2/branch1"
  convolution_param {
    num_output: 16
    bias_term: false
    pad: 0
    kernel_size: 1
    stride: 1
    weight_filler {
      type: "xavier"
    }
    bias_filler {
      type: "constant"
    }
  }
}
layer {
  name: "stage3_2/branch1/bn"
  type: "BatchNorm"
  bottom: "stage3_2/branch1"
  top: "stage3_2/branch1"
  param {
    lr_mult: 0
    decay_mult: 0
  }
  param {
    lr_mult: 0
    decay_mult: 0
  }
  param {
    lr_mult: 0
    decay_mult: 0
  }
  batch_norm_param {
    moving_average_fraction: 0.999
    eps: 0.001
  }
}
layer {
  name: "stage3_2/branch1/scale"
  type: "Scale"
  bottom: "stage3_2/branch1"
  top: "stage3_2/branch1"
  param {
    lr_mult: 1
    decay_mult: 0
  }
  param {
    lr_mult: 2
    decay_mult: 0
  }
  scale_param {
    filler {
      value: 1
    }
    bias_term: true
    bias_filler {
      value: 0
    }
  }
}
layer {
  name: "stage3_2/branch1/relu"
  type: "ReLU"
  bottom: "stage3_2/branch1"
  top: "stage3_2/branch1"
}
layer {
  name: "stage3_2/branch2a"
  type: "Convolution"
  bottom: "stage3_1/concat"
  top: "stage3_2/branch2a"
  convolution_param {
    num_output: 64
    bias_term: false
    pad: 0
    kernel_size: 1
    stride: 1
    weight_filler {
      type: "xavier"
    }
    bias_filler {
      type: "constant"
    }
  }
}
layer {
  name: "stage3_2/branch2a/bn"
  type: "BatchNorm"
  bottom: "stage3_2/branch2a"
  top: "stage3_2/branch2a"
  param {
    lr_mult: 0
    decay_mult: 0
  }
  param {
    lr_mult: 0
    decay_mult: 0
  }
  param {
    lr_mult: 0
    decay_mult: 0
  }
  batch_norm_param {
    moving_average_fraction: 0.999
    eps: 0.001
  }
}
layer {
  name: "stage3_2/branch2a/scale"
  type: "Scale"
  bottom: "stage3_2/branch2a"
  top: "stage3_2/branch2a"
  param {
    lr_mult: 1
    decay_mult: 0
  }
  param {
    lr_mult: 2
    decay_mult: 0
  }
  scale_param {
    filler {
      value: 1
    }
    bias_term: true
    bias_filler {
      value: 0
    }
  }
}
layer {
  name: "stage3_2/branch2a/relu"
  type: "ReLU"
  bottom: "stage3_2/branch2a"
  top: "stage3_2/branch2a"
}
layer {
  name: "stage3_2/branch2b"
  type: "Convolution"
  bottom: "stage3_2/branch2a"
  top: "stage3_2/branch2b"
  convolution_param {
    num_output: 16
    bias_term: false
    pad: 1
    kernel_size: 3
    stride: 1
    weight_filler {
      type: "xavier"
    }
    bias_filler {
      type: "constant"
    }
  }
}
layer {
  name: "stage3_2/branch2b/bn"
  type: "BatchNorm"
  bottom: "stage3_2/branch2b"
  top: "stage3_2/branch2b"
  param {
    lr_mult: 0
    decay_mult: 0
  }
  param {
    lr_mult: 0
    decay_mult: 0
  }
  param {
    lr_mult: 0
    decay_mult: 0
  }
  batch_norm_param {
    moving_average_fraction: 0.999
    eps: 0.001
  }
}
layer {
  name: "stage3_2/branch2b/scale"
  type: "Scale"
  bottom: "stage3_2/branch2b"
  top: "stage3_2/branch2b"
  param {
    lr_mult: 1
    decay_mult: 0
  }
  param {
    lr_mult: 2
    decay_mult: 0
  }
  scale_param {
    filler {
      value: 1
    }
    bias_term: true
    bias_filler {
      value: 0
    }
  }
}
layer {
  name: "stage3_2/branch2b/relu"
  type: "ReLU"
  bottom: "stage3_2/branch2b"
  top: "stage3_2/branch2b"
}
layer {
  name: "stage3_2/branch3a"
  type: "Convolution"
  bottom: "stage3_1/concat"
  top: "stage3_2/branch3a"
  convolution_param {
    num_output: 64
    bias_term: false
    pad: 0
    kernel_size: 1
    stride: 1
    weight_filler {
      type: "xavier"
    }
    bias_filler {
      type: "constant"
    }
  }
}
layer {
  name: "stage3_2/branch3a/bn"
  type: "BatchNorm"
  bottom: "stage3_2/branch3a"
  top: "stage3_2/branch3a"
  param {
    lr_mult: 0
    decay_mult: 0
  }
  param {
    lr_mult: 0
    decay_mult: 0
  }
  param {
    lr_mult: 0
    decay_mult: 0
  }
  batch_norm_param {
    moving_average_fraction: 0.999
    eps: 0.001
  }
}
layer {
  name: "stage3_2/branch3a/scale"
  type: "Scale"
  bottom: "stage3_2/branch3a"
  top: "stage3_2/branch3a"
  param {
    lr_mult: 1
    decay_mult: 0
  }
  param {
    lr_mult: 2
    decay_mult: 0
  }
  scale_param {
    filler {
      value: 1
    }
    bias_term: true
    bias_filler {
      value: 0
    }
  }
}
layer {
  name: "stage3_2/branch3a/relu"
  type: "ReLU"
  bottom: "stage3_2/branch3a"
  top: "stage3_2/branch3a"
}
layer {
  name: "stage3_2/branch3b"
  type: "Convolution"
  bottom: "stage3_2/branch3a"
  top: "stage3_2/branch3b"
  convolution_param {
    num_output: 64
    bias_term: false
    pad: 1
    kernel_size: 3
    stride: 1
    weight_filler {
      type: "xavier"
    }
    bias_filler {
      type: "constant"
    }
  }
}
layer {
  name: "stage3_2/branch3b/bn"
  type: "BatchNorm"
  bottom: "stage3_2/branch3b"
  top: "stage3_2/branch3b"
  param {
    lr_mult: 0
    decay_mult: 0
  }
  param {
    lr_mult: 0
    decay_mult: 0
  }
  param {
    lr_mult: 0
    decay_mult: 0
  }
  batch_norm_param {
    moving_average_fraction: 0.999
    eps: 0.001
  }
}
layer {
  name: "stage3_2/branch3b/scale"
  type: "Scale"
  bottom: "stage3_2/branch3b"
  top: "stage3_2/branch3b"
  param {
    lr_mult: 1
    decay_mult: 0
  }
  param {
    lr_mult: 2
    decay_mult: 0
  }
  scale_param {
    filler {
      value: 1
    }
    bias_term: true
    bias_filler {
      value: 0
    }
  }
}
layer {
  name: "stage3_2/branch3b/relu"
  type: "ReLU"
  bottom: "stage3_2/branch3b"
  top: "stage3_2/branch3b"
}
layer {
  name: "stage3_2/branch3c"
  type: "Convolution"
  bottom: "stage3_2/branch3b"
  top: "stage3_2/branch3c"
  convolution_param {
    num_output: 16
    bias_term: false
    pad: 1
    kernel_size: 3
    stride: 1
    weight_filler {
      type: "xavier"
    }
    bias_filler {
      type: "constant"
    }
  }
}
layer {
  name: "stage3_2/branch3c/bn"
  type: "BatchNorm"
  bottom: "stage3_2/branch3c"
  top: "stage3_2/branch3c"
  param {
    lr_mult: 0
    decay_mult: 0
  }
  param {
    lr_mult: 0
    decay_mult: 0
  }
  param {
    lr_mult: 0
    decay_mult: 0
  }
  batch_norm_param {
    moving_average_fraction: 0.999
    eps: 0.001
  }
}
layer {
  name: "stage3_2/branch3c/scale"
  type: "Scale"
  bottom: "stage3_2/branch3c"
  top: "stage3_2/branch3c"
  param {
    lr_mult: 1
    decay_mult: 0
  }
  param {
    lr_mult: 2
    decay_mult: 0
  }
  scale_param {
    filler {
      value: 1
    }
    bias_term: true
    bias_filler {
      value: 0
    }
  }
}
layer {
  name: "stage3_2/branch3c/relu"
  type: "ReLU"
  bottom: "stage3_2/branch3c"
  top: "stage3_2/branch3c"
}
layer {
  name: "stage3_2/eltwise"
  type: "Eltwise"
  bottom: "stage3_2/branch1"
  bottom: "stage3_2/branch2b"
  bottom: "stage3_2/branch3c"
  top: "stage3_2/eltwise"
  eltwise_param {
    operation: MAX
  }
}
layer {
  name: "stage3_2/concat"
  type: "Concat"
  bottom: "stage3_1/concat"
  bottom: "stage3_2/eltwise"
  top: "stage3_2/concat"
  concat_param {
    axis: 1
  }
}
layer {
  name: "stage3_3/branch1"
  type: "Convolution"
  bottom: "stage3_2/concat"
  top: "stage3_3/branch1"
  convolution_param {
    num_output: 16
    bias_term: false
    pad: 0
    kernel_size: 1
    stride: 1
    weight_filler {
      type: "xavier"
    }
    bias_filler {
      type: "constant"
    }
  }
}
layer {
  name: "stage3_3/branch1/bn"
  type: "BatchNorm"
  bottom: "stage3_3/branch1"
  top: "stage3_3/branch1"
  param {
    lr_mult: 0
    decay_mult: 0
  }
  param {
    lr_mult: 0
    decay_mult: 0
  }
  param {
    lr_mult: 0
    decay_mult: 0
  }
  batch_norm_param {
    moving_average_fraction: 0.999
    eps: 0.001
  }
}
layer {
  name: "stage3_3/branch1/scale"
  type: "Scale"
  bottom: "stage3_3/branch1"
  top: "stage3_3/branch1"
  param {
    lr_mult: 1
    decay_mult: 0
  }
  param {
    lr_mult: 2
    decay_mult: 0
  }
  scale_param {
    filler {
      value: 1
    }
    bias_term: true
    bias_filler {
      value: 0
    }
  }
}
layer {
  name: "stage3_3/branch1/relu"
  type: "ReLU"
  bottom: "stage3_3/branch1"
  top: "stage3_3/branch1"
}
layer {
  name: "stage3_3/branch2a"
  type: "Convolution"
  bottom: "stage3_2/concat"
  top: "stage3_3/branch2a"
  convolution_param {
    num_output: 64
    bias_term: false
    pad: 0
    kernel_size: 1
    stride: 1
    weight_filler {
      type: "xavier"
    }
    bias_filler {
      type: "constant"
    }
  }
}
layer {
  name: "stage3_3/branch2a/bn"
  type: "BatchNorm"
  bottom: "stage3_3/branch2a"
  top: "stage3_3/branch2a"
  param {
    lr_mult: 0
    decay_mult: 0
  }
  param {
    lr_mult: 0
    decay_mult: 0
  }
  param {
    lr_mult: 0
    decay_mult: 0
  }
  batch_norm_param {
    moving_average_fraction: 0.999
    eps: 0.001
  }
}
layer {
  name: "stage3_3/branch2a/scale"
  type: "Scale"
  bottom: "stage3_3/branch2a"
  top: "stage3_3/branch2a"
  param {
    lr_mult: 1
    decay_mult: 0
  }
  param {
    lr_mult: 2
    decay_mult: 0
  }
  scale_param {
    filler {
      value: 1
    }
    bias_term: true
    bias_filler {
      value: 0
    }
  }
}
layer {
  name: "stage3_3/branch2a/relu"
  type: "ReLU"
  bottom: "stage3_3/branch2a"
  top: "stage3_3/branch2a"
}
layer {
  name: "stage3_3/branch2b"
  type: "Convolution"
  bottom: "stage3_3/branch2a"
  top: "stage3_3/branch2b"
  convolution_param {
    num_output: 16
    bias_term: false
    pad: 1
    kernel_size: 3
    stride: 1
    weight_filler {
      type: "xavier"
    }
    bias_filler {
      type: "constant"
    }
  }
}
layer {
  name: "stage3_3/branch2b/bn"
  type: "BatchNorm"
  bottom: "stage3_3/branch2b"
  top: "stage3_3/branch2b"
  param {
    lr_mult: 0
    decay_mult: 0
  }
  param {
    lr_mult: 0
    decay_mult: 0
  }
  param {
    lr_mult: 0
    decay_mult: 0
  }
  batch_norm_param {
    moving_average_fraction: 0.999
    eps: 0.001
  }
}
layer {
  name: "stage3_3/branch2b/scale"
  type: "Scale"
  bottom: "stage3_3/branch2b"
  top: "stage3_3/branch2b"
  param {
    lr_mult: 1
    decay_mult: 0
  }
  param {
    lr_mult: 2
    decay_mult: 0
  }
  scale_param {
    filler {
      value: 1
    }
    bias_term: true
    bias_filler {
      value: 0
    }
  }
}
layer {
  name: "stage3_3/branch2b/relu"
  type: "ReLU"
  bottom: "stage3_3/branch2b"
  top: "stage3_3/branch2b"
}
layer {
  name: "stage3_3/branch3a"
  type: "Convolution"
  bottom: "stage3_2/concat"
  top: "stage3_3/branch3a"
  convolution_param {
    num_output: 64
    bias_term: false
    pad: 0
    kernel_size: 1
    stride: 1
    weight_filler {
      type: "xavier"
    }
    bias_filler {
      type: "constant"
    }
  }
}
layer {
  name: "stage3_3/branch3a/bn"
  type: "BatchNorm"
  bottom: "stage3_3/branch3a"
  top: "stage3_3/branch3a"
  param {
    lr_mult: 0
    decay_mult: 0
  }
  param {
    lr_mult: 0
    decay_mult: 0
  }
  param {
    lr_mult: 0
    decay_mult: 0
  }
  batch_norm_param {
    moving_average_fraction: 0.999
    eps: 0.001
  }
}
layer {
  name: "stage3_3/branch3a/scale"
  type: "Scale"
  bottom: "stage3_3/branch3a"
  top: "stage3_3/branch3a"
  param {
    lr_mult: 1
    decay_mult: 0
  }
  param {
    lr_mult: 2
    decay_mult: 0
  }
  scale_param {
    filler {
      value: 1
    }
    bias_term: true
    bias_filler {
      value: 0
    }
  }
}
layer {
  name: "stage3_3/branch3a/relu"
  type: "ReLU"
  bottom: "stage3_3/branch3a"
  top: "stage3_3/branch3a"
}
layer {
  name: "stage3_3/branch3b"
  type: "Convolution"
  bottom: "stage3_3/branch3a"
  top: "stage3_3/branch3b"
  convolution_param {
    num_output: 64
    bias_term: false
    pad: 1
    kernel_size: 3
    stride: 1
    weight_filler {
      type: "xavier"
    }
    bias_filler {
      type: "constant"
    }
  }
}
layer {
  name: "stage3_3/branch3b/bn"
  type: "BatchNorm"
  bottom: "stage3_3/branch3b"
  top: "stage3_3/branch3b"
  param {
    lr_mult: 0
    decay_mult: 0
  }
  param {
    lr_mult: 0
    decay_mult: 0
  }
  param {
    lr_mult: 0
    decay_mult: 0
  }
  batch_norm_param {
    moving_average_fraction: 0.999
    eps: 0.001
  }
}
layer {
  name: "stage3_3/branch3b/scale"
  type: "Scale"
  bottom: "stage3_3/branch3b"
  top: "stage3_3/branch3b"
  param {
    lr_mult: 1
    decay_mult: 0
  }
  param {
    lr_mult: 2
    decay_mult: 0
  }
  scale_param {
    filler {
      value: 1
    }
    bias_term: true
    bias_filler {
      value: 0
    }
  }
}
layer {
  name: "stage3_3/branch3b/relu"
  type: "ReLU"
  bottom: "stage3_3/branch3b"
  top: "stage3_3/branch3b"
}
layer {
  name: "stage3_3/branch3c"
  type: "Convolution"
  bottom: "stage3_3/branch3b"
  top: "stage3_3/branch3c"
  convolution_param {
    num_output: 16
    bias_term: false
    pad: 1
    kernel_size: 3
    stride: 1
    weight_filler {
      type: "xavier"
    }
    bias_filler {
      type: "constant"
    }
  }
}
layer {
  name: "stage3_3/branch3c/bn"
  type: "BatchNorm"
  bottom: "stage3_3/branch3c"
  top: "stage3_3/branch3c"
  param {
    lr_mult: 0
    decay_mult: 0
  }
  param {
    lr_mult: 0
    decay_mult: 0
  }
  param {
    lr_mult: 0
    decay_mult: 0
  }
  batch_norm_param {
    moving_average_fraction: 0.999
    eps: 0.001
  }
}
layer {
  name: "stage3_3/branch3c/scale"
  type: "Scale"
  bottom: "stage3_3/branch3c"
  top: "stage3_3/branch3c"
  param {
    lr_mult: 1
    decay_mult: 0
  }
  param {
    lr_mult: 2
    decay_mult: 0
  }
  scale_param {
    filler {
      value: 1
    }
    bias_term: true
    bias_filler {
      value: 0
    }
  }
}
layer {
  name: "stage3_3/branch3c/relu"
  type: "ReLU"
  bottom: "stage3_3/branch3c"
  top: "stage3_3/branch3c"
}
layer {
  name: "stage3_3/eltwise"
  type: "Eltwise"
  bottom: "stage3_3/branch1"
  bottom: "stage3_3/branch2b"
  bottom: "stage3_3/branch3c"
  top: "stage3_3/eltwise"
  eltwise_param {
    operation: MAX
  }
}
layer {
  name: "stage3_3/concat"
  type: "Concat"
  bottom: "stage3_2/concat"
  bottom: "stage3_3/eltwise"
  top: "stage3_3/concat"
  concat_param {
    axis: 1
  }
}
layer {
  name: "stage3_4/branch1"
  type: "Convolution"
  bottom: "stage3_3/concat"
  top: "stage3_4/branch1"
  convolution_param {
    num_output: 16
    bias_term: false
    pad: 0
    kernel_size: 1
    stride: 1
    weight_filler {
      type: "xavier"
    }
    bias_filler {
      type: "constant"
    }
  }
}
layer {
  name: "stage3_4/branch1/bn"
  type: "BatchNorm"
  bottom: "stage3_4/branch1"
  top: "stage3_4/branch1"
  param {
    lr_mult: 0
    decay_mult: 0
  }
  param {
    lr_mult: 0
    decay_mult: 0
  }
  param {
    lr_mult: 0
    decay_mult: 0
  }
  batch_norm_param {
    moving_average_fraction: 0.999
    eps: 0.001
  }
}
layer {
  name: "stage3_4/branch1/scale"
  type: "Scale"
  bottom: "stage3_4/branch1"
  top: "stage3_4/branch1"
  param {
    lr_mult: 1
    decay_mult: 0
  }
  param {
    lr_mult: 2
    decay_mult: 0
  }
  scale_param {
    filler {
      value: 1
    }
    bias_term: true
    bias_filler {
      value: 0
    }
  }
}
layer {
  name: "stage3_4/branch1/relu"
  type: "ReLU"
  bottom: "stage3_4/branch1"
  top: "stage3_4/branch1"
}
layer {
  name: "stage3_4/branch2a"
  type: "Convolution"
  bottom: "stage3_3/concat"
  top: "stage3_4/branch2a"
  convolution_param {
    num_output: 64
    bias_term: false
    pad: 0
    kernel_size: 1
    stride: 1
    weight_filler {
      type: "xavier"
    }
    bias_filler {
      type: "constant"
    }
  }
}
layer {
  name: "stage3_4/branch2a/bn"
  type: "BatchNorm"
  bottom: "stage3_4/branch2a"
  top: "stage3_4/branch2a"
  param {
    lr_mult: 0
    decay_mult: 0
  }
  param {
    lr_mult: 0
    decay_mult: 0
  }
  param {
    lr_mult: 0
    decay_mult: 0
  }
  batch_norm_param {
    moving_average_fraction: 0.999
    eps: 0.001
  }
}
layer {
  name: "stage3_4/branch2a/scale"
  type: "Scale"
  bottom: "stage3_4/branch2a"
  top: "stage3_4/branch2a"
  param {
    lr_mult: 1
    decay_mult: 0
  }
  param {
    lr_mult: 2
    decay_mult: 0
  }
  scale_param {
    filler {
      value: 1
    }
    bias_term: true
    bias_filler {
      value: 0
    }
  }
}
layer {
  name: "stage3_4/branch2a/relu"
  type: "ReLU"
  bottom: "stage3_4/branch2a"
  top: "stage3_4/branch2a"
}
layer {
  name: "stage3_4/branch2b"
  type: "Convolution"
  bottom: "stage3_4/branch2a"
  top: "stage3_4/branch2b"
  convolution_param {
    num_output: 16
    bias_term: false
    pad: 1
    kernel_size: 3
    stride: 1
    weight_filler {
      type: "xavier"
    }
    bias_filler {
      type: "constant"
    }
  }
}
layer {
  name: "stage3_4/branch2b/bn"
  type: "BatchNorm"
  bottom: "stage3_4/branch2b"
  top: "stage3_4/branch2b"
  param {
    lr_mult: 0
    decay_mult: 0
  }
  param {
    lr_mult: 0
    decay_mult: 0
  }
  param {
    lr_mult: 0
    decay_mult: 0
  }
  batch_norm_param {
    moving_average_fraction: 0.999
    eps: 0.001
  }
}
layer {
  name: "stage3_4/branch2b/scale"
  type: "Scale"
  bottom: "stage3_4/branch2b"
  top: "stage3_4/branch2b"
  param {
    lr_mult: 1
    decay_mult: 0
  }
  param {
    lr_mult: 2
    decay_mult: 0
  }
  scale_param {
    filler {
      value: 1
    }
    bias_term: true
    bias_filler {
      value: 0
    }
  }
}
layer {
  name: "stage3_4/branch2b/relu"
  type: "ReLU"
  bottom: "stage3_4/branch2b"
  top: "stage3_4/branch2b"
}
layer {
  name: "stage3_4/branch3a"
  type: "Convolution"
  bottom: "stage3_3/concat"
  top: "stage3_4/branch3a"
  convolution_param {
    num_output: 64
    bias_term: false
    pad: 0
    kernel_size: 1
    stride: 1
    weight_filler {
      type: "xavier"
    }
    bias_filler {
      type: "constant"
    }
  }
}
layer {
  name: "stage3_4/branch3a/bn"
  type: "BatchNorm"
  bottom: "stage3_4/branch3a"
  top: "stage3_4/branch3a"
  param {
    lr_mult: 0
    decay_mult: 0
  }
  param {
    lr_mult: 0
    decay_mult: 0
  }
  param {
    lr_mult: 0
    decay_mult: 0
  }
  batch_norm_param {
    moving_average_fraction: 0.999
    eps: 0.001
  }
}
layer {
  name: "stage3_4/branch3a/scale"
  type: "Scale"
  bottom: "stage3_4/branch3a"
  top: "stage3_4/branch3a"
  param {
    lr_mult: 1
    decay_mult: 0
  }
  param {
    lr_mult: 2
    decay_mult: 0
  }
  scale_param {
    filler {
      value: 1
    }
    bias_term: true
    bias_filler {
      value: 0
    }
  }
}
layer {
  name: "stage3_4/branch3a/relu"
  type: "ReLU"
  bottom: "stage3_4/branch3a"
  top: "stage3_4/branch3a"
}
layer {
  name: "stage3_4/branch3b"
  type: "Convolution"
  bottom: "stage3_4/branch3a"
  top: "stage3_4/branch3b"
  convolution_param {
    num_output: 64
    bias_term: false
    pad: 1
    kernel_size: 3
    stride: 1
    weight_filler {
      type: "xavier"
    }
    bias_filler {
      type: "constant"
    }
  }
}
layer {
  name: "stage3_4/branch3b/bn"
  type: "BatchNorm"
  bottom: "stage3_4/branch3b"
  top: "stage3_4/branch3b"
  param {
    lr_mult: 0
    decay_mult: 0
  }
  param {
    lr_mult: 0
    decay_mult: 0
  }
  param {
    lr_mult: 0
    decay_mult: 0
  }
  batch_norm_param {
    moving_average_fraction: 0.999
    eps: 0.001
  }
}
layer {
  name: "stage3_4/branch3b/scale"
  type: "Scale"
  bottom: "stage3_4/branch3b"
  top: "stage3_4/branch3b"
  param {
    lr_mult: 1
    decay_mult: 0
  }
  param {
    lr_mult: 2
    decay_mult: 0
  }
  scale_param {
    filler {
      value: 1
    }
    bias_term: true
    bias_filler {
      value: 0
    }
  }
}
layer {
  name: "stage3_4/branch3b/relu"
  type: "ReLU"
  bottom: "stage3_4/branch3b"
  top: "stage3_4/branch3b"
}
layer {
  name: "stage3_4/branch3c"
  type: "Convolution"
  bottom: "stage3_4/branch3b"
  top: "stage3_4/branch3c"
  convolution_param {
    num_output: 16
    bias_term: false
    pad: 1
    kernel_size: 3
    stride: 1
    weight_filler {
      type: "xavier"
    }
    bias_filler {
      type: "constant"
    }
  }
}
layer {
  name: "stage3_4/branch3c/bn"
  type: "BatchNorm"
  bottom: "stage3_4/branch3c"
  top: "stage3_4/branch3c"
  param {
    lr_mult: 0
    decay_mult: 0
  }
  param {
    lr_mult: 0
    decay_mult: 0
  }
  param {
    lr_mult: 0
    decay_mult: 0
  }
  batch_norm_param {
    moving_average_fraction: 0.999
    eps: 0.001
  }
}
layer {
  name: "stage3_4/branch3c/scale"
  type: "Scale"
  bottom: "stage3_4/branch3c"
  top: "stage3_4/branch3c"
  param {
    lr_mult: 1
    decay_mult: 0
  }
  param {
    lr_mult: 2
    decay_mult: 0
  }
  scale_param {
    filler {
      value: 1
    }
    bias_term: true
    bias_filler {
      value: 0
    }
  }
}
layer {
  name: "stage3_4/branch3c/relu"
  type: "ReLU"
  bottom: "stage3_4/branch3c"
  top: "stage3_4/branch3c"
}
layer {
  name: "stage3_4/eltwise"
  type: "Eltwise"
  bottom: "stage3_4/branch1"
  bottom: "stage3_4/branch2b"
  bottom: "stage3_4/branch3c"
  top: "stage3_4/eltwise"
  eltwise_param {
    operation: MAX
  }
}
layer {
  name: "stage3_4/concat"
  type: "Concat"
  bottom: "stage3_3/concat"
  bottom: "stage3_4/eltwise"
  top: "stage3_4/concat"
  concat_param {
    axis: 1
  }
}
layer {
  name: "stage3_5/branch1"
  type: "Convolution"
  bottom: "stage3_4/concat"
  top: "stage3_5/branch1"
  convolution_param {
    num_output: 16
    bias_term: false
    pad: 0
    kernel_size: 1
    stride: 1
    weight_filler {
      type: "xavier"
    }
    bias_filler {
      type: "constant"
    }
  }
}
layer {
  name: "stage3_5/branch1/bn"
  type: "BatchNorm"
  bottom: "stage3_5/branch1"
  top: "stage3_5/branch1"
  param {
    lr_mult: 0
    decay_mult: 0
  }
  param {
    lr_mult: 0
    decay_mult: 0
  }
  param {
    lr_mult: 0
    decay_mult: 0
  }
  batch_norm_param {
    moving_average_fraction: 0.999
    eps: 0.001
  }
}
layer {
  name: "stage3_5/branch1/scale"
  type: "Scale"
  bottom: "stage3_5/branch1"
  top: "stage3_5/branch1"
  param {
    lr_mult: 1
    decay_mult: 0
  }
  param {
    lr_mult: 2
    decay_mult: 0
  }
  scale_param {
    filler {
      value: 1
    }
    bias_term: true
    bias_filler {
      value: 0
    }
  }
}
layer {
  name: "stage3_5/branch1/relu"
  type: "ReLU"
  bottom: "stage3_5/branch1"
  top: "stage3_5/branch1"
}
layer {
  name: "stage3_5/branch2a"
  type: "Convolution"
  bottom: "stage3_4/concat"
  top: "stage3_5/branch2a"
  convolution_param {
    num_output: 64
    bias_term: false
    pad: 0
    kernel_size: 1
    stride: 1
    weight_filler {
      type: "xavier"
    }
    bias_filler {
      type: "constant"
    }
  }
}
layer {
  name: "stage3_5/branch2a/bn"
  type: "BatchNorm"
  bottom: "stage3_5/branch2a"
  top: "stage3_5/branch2a"
  param {
    lr_mult: 0
    decay_mult: 0
  }
  param {
    lr_mult: 0
    decay_mult: 0
  }
  param {
    lr_mult: 0
    decay_mult: 0
  }
  batch_norm_param {
    moving_average_fraction: 0.999
    eps: 0.001
  }
}
layer {
  name: "stage3_5/branch2a/scale"
  type: "Scale"
  bottom: "stage3_5/branch2a"
  top: "stage3_5/branch2a"
  param {
    lr_mult: 1
    decay_mult: 0
  }
  param {
    lr_mult: 2
    decay_mult: 0
  }
  scale_param {
    filler {
      value: 1
    }
    bias_term: true
    bias_filler {
      value: 0
    }
  }
}
layer {
  name: "stage3_5/branch2a/relu"
  type: "ReLU"
  bottom: "stage3_5/branch2a"
  top: "stage3_5/branch2a"
}
layer {
  name: "stage3_5/branch2b"
  type: "Convolution"
  bottom: "stage3_5/branch2a"
  top: "stage3_5/branch2b"
  convolution_param {
    num_output: 16
    bias_term: false
    pad: 1
    kernel_size: 3
    stride: 1
    weight_filler {
      type: "xavier"
    }
    bias_filler {
      type: "constant"
    }
  }
}
layer {
  name: "stage3_5/branch2b/bn"
  type: "BatchNorm"
  bottom: "stage3_5/branch2b"
  top: "stage3_5/branch2b"
  param {
    lr_mult: 0
    decay_mult: 0
  }
  param {
    lr_mult: 0
    decay_mult: 0
  }
  param {
    lr_mult: 0
    decay_mult: 0
  }
  batch_norm_param {
    moving_average_fraction: 0.999
    eps: 0.001
  }
}
layer {
  name: "stage3_5/branch2b/scale"
  type: "Scale"
  bottom: "stage3_5/branch2b"
  top: "stage3_5/branch2b"
  param {
    lr_mult: 1
    decay_mult: 0
  }
  param {
    lr_mult: 2
    decay_mult: 0
  }
  scale_param {
    filler {
      value: 1
    }
    bias_term: true
    bias_filler {
      value: 0
    }
  }
}
layer {
  name: "stage3_5/branch2b/relu"
  type: "ReLU"
  bottom: "stage3_5/branch2b"
  top: "stage3_5/branch2b"
}
layer {
  name: "stage3_5/branch3a"
  type: "Convolution"
  bottom: "stage3_4/concat"
  top: "stage3_5/branch3a"
  convolution_param {
    num_output: 64
    bias_term: false
    pad: 0
    kernel_size: 1
    stride: 1
    weight_filler {
      type: "xavier"
    }
    bias_filler {
      type: "constant"
    }
  }
}
layer {
  name: "stage3_5/branch3a/bn"
  type: "BatchNorm"
  bottom: "stage3_5/branch3a"
  top: "stage3_5/branch3a"
  param {
    lr_mult: 0
    decay_mult: 0
  }
  param {
    lr_mult: 0
    decay_mult: 0
  }
  param {
    lr_mult: 0
    decay_mult: 0
  }
  batch_norm_param {
    moving_average_fraction: 0.999
    eps: 0.001
  }
}
layer {
  name: "stage3_5/branch3a/scale"
  type: "Scale"
  bottom: "stage3_5/branch3a"
  top: "stage3_5/branch3a"
  param {
    lr_mult: 1
    decay_mult: 0
  }
  param {
    lr_mult: 2
    decay_mult: 0
  }
  scale_param {
    filler {
      value: 1
    }
    bias_term: true
    bias_filler {
      value: 0
    }
  }
}
layer {
  name: "stage3_5/branch3a/relu"
  type: "ReLU"
  bottom: "stage3_5/branch3a"
  top: "stage3_5/branch3a"
}
layer {
  name: "stage3_5/branch3b"
  type: "Convolution"
  bottom: "stage3_5/branch3a"
  top: "stage3_5/branch3b"
  convolution_param {
    num_output: 64
    bias_term: false
    pad: 1
    kernel_size: 3
    stride: 1
    weight_filler {
      type: "xavier"
    }
    bias_filler {
      type: "constant"
    }
  }
}
layer {
  name: "stage3_5/branch3b/bn"
  type: "BatchNorm"
  bottom: "stage3_5/branch3b"
  top: "stage3_5/branch3b"
  param {
    lr_mult: 0
    decay_mult: 0
  }
  param {
    lr_mult: 0
    decay_mult: 0
  }
  param {
    lr_mult: 0
    decay_mult: 0
  }
  batch_norm_param {
    moving_average_fraction: 0.999
    eps: 0.001
  }
}
layer {
  name: "stage3_5/branch3b/scale"
  type: "Scale"
  bottom: "stage3_5/branch3b"
  top: "stage3_5/branch3b"
  param {
    lr_mult: 1
    decay_mult: 0
  }
  param {
    lr_mult: 2
    decay_mult: 0
  }
  scale_param {
    filler {
      value: 1
    }
    bias_term: true
    bias_filler {
      value: 0
    }
  }
}
layer {
  name: "stage3_5/branch3b/relu"
  type: "ReLU"
  bottom: "stage3_5/branch3b"
  top: "stage3_5/branch3b"
}
layer {
  name: "stage3_5/branch3c"
  type: "Convolution"
  bottom: "stage3_5/branch3b"
  top: "stage3_5/branch3c"
  convolution_param {
    num_output: 16
    bias_term: false
    pad: 1
    kernel_size: 3
    stride: 1
    weight_filler {
      type: "xavier"
    }
    bias_filler {
      type: "constant"
    }
  }
}
layer {
  name: "stage3_5/branch3c/bn"
  type: "BatchNorm"
  bottom: "stage3_5/branch3c"
  top: "stage3_5/branch3c"
  param {
    lr_mult: 0
    decay_mult: 0
  }
  param {
    lr_mult: 0
    decay_mult: 0
  }
  param {
    lr_mult: 0
    decay_mult: 0
  }
  batch_norm_param {
    moving_average_fraction: 0.999
    eps: 0.001
  }
}
layer {
  name: "stage3_5/branch3c/scale"
  type: "Scale"
  bottom: "stage3_5/branch3c"
  top: "stage3_5/branch3c"
  param {
    lr_mult: 1
    decay_mult: 0
  }
  param {
    lr_mult: 2
    decay_mult: 0
  }
  scale_param {
    filler {
      value: 1
    }
    bias_term: true
    bias_filler {
      value: 0
    }
  }
}
layer {
  name: "stage3_5/branch3c/relu"
  type: "ReLU"
  bottom: "stage3_5/branch3c"
  top: "stage3_5/branch3c"
}
layer {
  name: "stage3_5/eltwise"
  type: "Eltwise"
  bottom: "stage3_5/branch1"
  bottom: "stage3_5/branch2b"
  bottom: "stage3_5/branch3c"
  top: "stage3_5/eltwise"
  eltwise_param {
    operation: MAX
  }
}
layer {
  name: "stage3_5/concat"
  type: "Concat"
  bottom: "stage3_4/concat"
  bottom: "stage3_5/eltwise"
  top: "stage3_5/concat"
  concat_param {
    axis: 1
  }
}
layer {
  name: "stage3_6/branch1"
  type: "Convolution"
  bottom: "stage3_5/concat"
  top: "stage3_6/branch1"
  convolution_param {
    num_output: 16
    bias_term: false
    pad: 0
    kernel_size: 1
    stride: 1
    weight_filler {
      type: "xavier"
    }
    bias_filler {
      type: "constant"
    }
  }
}
layer {
  name: "stage3_6/branch1/bn"
  type: "BatchNorm"
  bottom: "stage3_6/branch1"
  top: "stage3_6/branch1"
  param {
    lr_mult: 0
    decay_mult: 0
  }
  param {
    lr_mult: 0
    decay_mult: 0
  }
  param {
    lr_mult: 0
    decay_mult: 0
  }
  batch_norm_param {
    moving_average_fraction: 0.999
    eps: 0.001
  }
}
layer {
  name: "stage3_6/branch1/scale"
  type: "Scale"
  bottom: "stage3_6/branch1"
  top: "stage3_6/branch1"
  param {
    lr_mult: 1
    decay_mult: 0
  }
  param {
    lr_mult: 2
    decay_mult: 0
  }
  scale_param {
    filler {
      value: 1
    }
    bias_term: true
    bias_filler {
      value: 0
    }
  }
}
layer {
  name: "stage3_6/branch1/relu"
  type: "ReLU"
  bottom: "stage3_6/branch1"
  top: "stage3_6/branch1"
}
layer {
  name: "stage3_6/branch2a"
  type: "Convolution"
  bottom: "stage3_5/concat"
  top: "stage3_6/branch2a"
  convolution_param {
    num_output: 64
    bias_term: false
    pad: 0
    kernel_size: 1
    stride: 1
    weight_filler {
      type: "xavier"
    }
    bias_filler {
      type: "constant"
    }
  }
}
layer {
  name: "stage3_6/branch2a/bn"
  type: "BatchNorm"
  bottom: "stage3_6/branch2a"
  top: "stage3_6/branch2a"
  param {
    lr_mult: 0
    decay_mult: 0
  }
  param {
    lr_mult: 0
    decay_mult: 0
  }
  param {
    lr_mult: 0
    decay_mult: 0
  }
  batch_norm_param {
    moving_average_fraction: 0.999
    eps: 0.001
  }
}
layer {
  name: "stage3_6/branch2a/scale"
  type: "Scale"
  bottom: "stage3_6/branch2a"
  top: "stage3_6/branch2a"
  param {
    lr_mult: 1
    decay_mult: 0
  }
  param {
    lr_mult: 2
    decay_mult: 0
  }
  scale_param {
    filler {
      value: 1
    }
    bias_term: true
    bias_filler {
      value: 0
    }
  }
}
layer {
  name: "stage3_6/branch2a/relu"
  type: "ReLU"
  bottom: "stage3_6/branch2a"
  top: "stage3_6/branch2a"
}
layer {
  name: "stage3_6/branch2b"
  type: "Convolution"
  bottom: "stage3_6/branch2a"
  top: "stage3_6/branch2b"
  convolution_param {
    num_output: 16
    bias_term: false
    pad: 1
    kernel_size: 3
    stride: 1
    weight_filler {
      type: "xavier"
    }
    bias_filler {
      type: "constant"
    }
  }
}
layer {
  name: "stage3_6/branch2b/bn"
  type: "BatchNorm"
  bottom: "stage3_6/branch2b"
  top: "stage3_6/branch2b"
  param {
    lr_mult: 0
    decay_mult: 0
  }
  param {
    lr_mult: 0
    decay_mult: 0
  }
  param {
    lr_mult: 0
    decay_mult: 0
  }
  batch_norm_param {
    moving_average_fraction: 0.999
    eps: 0.001
  }
}
layer {
  name: "stage3_6/branch2b/scale"
  type: "Scale"
  bottom: "stage3_6/branch2b"
  top: "stage3_6/branch2b"
  param {
    lr_mult: 1
    decay_mult: 0
  }
  param {
    lr_mult: 2
    decay_mult: 0
  }
  scale_param {
    filler {
      value: 1
    }
    bias_term: true
    bias_filler {
      value: 0
    }
  }
}
layer {
  name: "stage3_6/branch2b/relu"
  type: "ReLU"
  bottom: "stage3_6/branch2b"
  top: "stage3_6/branch2b"
}
layer {
  name: "stage3_6/branch3a"
  type: "Convolution"
  bottom: "stage3_5/concat"
  top: "stage3_6/branch3a"
  convolution_param {
    num_output: 64
    bias_term: false
    pad: 0
    kernel_size: 1
    stride: 1
    weight_filler {
      type: "xavier"
    }
    bias_filler {
      type: "constant"
    }
  }
}
layer {
  name: "stage3_6/branch3a/bn"
  type: "BatchNorm"
  bottom: "stage3_6/branch3a"
  top: "stage3_6/branch3a"
  param {
    lr_mult: 0
    decay_mult: 0
  }
  param {
    lr_mult: 0
    decay_mult: 0
  }
  param {
    lr_mult: 0
    decay_mult: 0
  }
  batch_norm_param {
    moving_average_fraction: 0.999
    eps: 0.001
  }
}
layer {
  name: "stage3_6/branch3a/scale"
  type: "Scale"
  bottom: "stage3_6/branch3a"
  top: "stage3_6/branch3a"
  param {
    lr_mult: 1
    decay_mult: 0
  }
  param {
    lr_mult: 2
    decay_mult: 0
  }
  scale_param {
    filler {
      value: 1
    }
    bias_term: true
    bias_filler {
      value: 0
    }
  }
}
layer {
  name: "stage3_6/branch3a/relu"
  type: "ReLU"
  bottom: "stage3_6/branch3a"
  top: "stage3_6/branch3a"
}
layer {
  name: "stage3_6/branch3b"
  type: "Convolution"
  bottom: "stage3_6/branch3a"
  top: "stage3_6/branch3b"
  convolution_param {
    num_output: 64
    bias_term: false
    pad: 1
    kernel_size: 3
    stride: 1
    weight_filler {
      type: "xavier"
    }
    bias_filler {
      type: "constant"
    }
  }
}
layer {
  name: "stage3_6/branch3b/bn"
  type: "BatchNorm"
  bottom: "stage3_6/branch3b"
  top: "stage3_6/branch3b"
  param {
    lr_mult: 0
    decay_mult: 0
  }
  param {
    lr_mult: 0
    decay_mult: 0
  }
  param {
    lr_mult: 0
    decay_mult: 0
  }
  batch_norm_param {
    moving_average_fraction: 0.999
    eps: 0.001
  }
}
layer {
  name: "stage3_6/branch3b/scale"
  type: "Scale"
  bottom: "stage3_6/branch3b"
  top: "stage3_6/branch3b"
  param {
    lr_mult: 1
    decay_mult: 0
  }
  param {
    lr_mult: 2
    decay_mult: 0
  }
  scale_param {
    filler {
      value: 1
    }
    bias_term: true
    bias_filler {
      value: 0
    }
  }
}
layer {
  name: "stage3_6/branch3b/relu"
  type: "ReLU"
  bottom: "stage3_6/branch3b"
  top: "stage3_6/branch3b"
}
layer {
  name: "stage3_6/branch3c"
  type: "Convolution"
  bottom: "stage3_6/branch3b"
  top: "stage3_6/branch3c"
  convolution_param {
    num_output: 16
    bias_term: false
    pad: 1
    kernel_size: 3
    stride: 1
    weight_filler {
      type: "xavier"
    }
    bias_filler {
      type: "constant"
    }
  }
}
layer {
  name: "stage3_6/branch3c/bn"
  type: "BatchNorm"
  bottom: "stage3_6/branch3c"
  top: "stage3_6/branch3c"
  param {
    lr_mult: 0
    decay_mult: 0
  }
  param {
    lr_mult: 0
    decay_mult: 0
  }
  param {
    lr_mult: 0
    decay_mult: 0
  }
  batch_norm_param {
    moving_average_fraction: 0.999
    eps: 0.001
  }
}
layer {
  name: "stage3_6/branch3c/scale"
  type: "Scale"
  bottom: "stage3_6/branch3c"
  top: "stage3_6/branch3c"
  param {
    lr_mult: 1
    decay_mult: 0
  }
  param {
    lr_mult: 2
    decay_mult: 0
  }
  scale_param {
    filler {
      value: 1
    }
    bias_term: true
    bias_filler {
      value: 0
    }
  }
}
layer {
  name: "stage3_6/branch3c/relu"
  type: "ReLU"
  bottom: "stage3_6/branch3c"
  top: "stage3_6/branch3c"
}
layer {
  name: "stage3_6/eltwise"
  type: "Eltwise"
  bottom: "stage3_6/branch1"
  bottom: "stage3_6/branch2b"
  bottom: "stage3_6/branch3c"
  top: "stage3_6/eltwise"
  eltwise_param {
    operation: MAX
  }
}
layer {
  name: "stage3_6/concat"
  type: "Concat"
  bottom: "stage3_5/concat"
  bottom: "stage3_6/eltwise"
  top: "stage3_6/concat"
  concat_param {
    axis: 1
  }
}
layer {
  name: "stage3_7/branch1"
  type: "Convolution"
  bottom: "stage3_6/concat"
  top: "stage3_7/branch1"
  convolution_param {
    num_output: 16
    bias_term: false
    pad: 0
    kernel_size: 1
    stride: 1
    weight_filler {
      type: "xavier"
    }
    bias_filler {
      type: "constant"
    }
  }
}
layer {
  name: "stage3_7/branch1/bn"
  type: "BatchNorm"
  bottom: "stage3_7/branch1"
  top: "stage3_7/branch1"
  param {
    lr_mult: 0
    decay_mult: 0
  }
  param {
    lr_mult: 0
    decay_mult: 0
  }
  param {
    lr_mult: 0
    decay_mult: 0
  }
  batch_norm_param {
    moving_average_fraction: 0.999
    eps: 0.001
  }
}
layer {
  name: "stage3_7/branch1/scale"
  type: "Scale"
  bottom: "stage3_7/branch1"
  top: "stage3_7/branch1"
  param {
    lr_mult: 1
    decay_mult: 0
  }
  param {
    lr_mult: 2
    decay_mult: 0
  }
  scale_param {
    filler {
      value: 1
    }
    bias_term: true
    bias_filler {
      value: 0
    }
  }
}
layer {
  name: "stage3_7/branch1/relu"
  type: "ReLU"
  bottom: "stage3_7/branch1"
  top: "stage3_7/branch1"
}
layer {
  name: "stage3_7/branch2a"
  type: "Convolution"
  bottom: "stage3_6/concat"
  top: "stage3_7/branch2a"
  convolution_param {
    num_output: 64
    bias_term: false
    pad: 0
    kernel_size: 1
    stride: 1
    weight_filler {
      type: "xavier"
    }
    bias_filler {
      type: "constant"
    }
  }
}
layer {
  name: "stage3_7/branch2a/bn"
  type: "BatchNorm"
  bottom: "stage3_7/branch2a"
  top: "stage3_7/branch2a"
  param {
    lr_mult: 0
    decay_mult: 0
  }
  param {
    lr_mult: 0
    decay_mult: 0
  }
  param {
    lr_mult: 0
    decay_mult: 0
  }
  batch_norm_param {
    moving_average_fraction: 0.999
    eps: 0.001
  }
}
layer {
  name: "stage3_7/branch2a/scale"
  type: "Scale"
  bottom: "stage3_7/branch2a"
  top: "stage3_7/branch2a"
  param {
    lr_mult: 1
    decay_mult: 0
  }
  param {
    lr_mult: 2
    decay_mult: 0
  }
  scale_param {
    filler {
      value: 1
    }
    bias_term: true
    bias_filler {
      value: 0
    }
  }
}
layer {
  name: "stage3_7/branch2a/relu"
  type: "ReLU"
  bottom: "stage3_7/branch2a"
  top: "stage3_7/branch2a"
}
layer {
  name: "stage3_7/branch2b"
  type: "Convolution"
  bottom: "stage3_7/branch2a"
  top: "stage3_7/branch2b"
  convolution_param {
    num_output: 16
    bias_term: false
    pad: 1
    kernel_size: 3
    stride: 1
    weight_filler {
      type: "xavier"
    }
    bias_filler {
      type: "constant"
    }
  }
}
layer {
  name: "stage3_7/branch2b/bn"
  type: "BatchNorm"
  bottom: "stage3_7/branch2b"
  top: "stage3_7/branch2b"
  param {
    lr_mult: 0
    decay_mult: 0
  }
  param {
    lr_mult: 0
    decay_mult: 0
  }
  param {
    lr_mult: 0
    decay_mult: 0
  }
  batch_norm_param {
    moving_average_fraction: 0.999
    eps: 0.001
  }
}
layer {
  name: "stage3_7/branch2b/scale"
  type: "Scale"
  bottom: "stage3_7/branch2b"
  top: "stage3_7/branch2b"
  param {
    lr_mult: 1
    decay_mult: 0
  }
  param {
    lr_mult: 2
    decay_mult: 0
  }
  scale_param {
    filler {
      value: 1
    }
    bias_term: true
    bias_filler {
      value: 0
    }
  }
}
layer {
  name: "stage3_7/branch2b/relu"
  type: "ReLU"
  bottom: "stage3_7/branch2b"
  top: "stage3_7/branch2b"
}
layer {
  name: "stage3_7/branch3a"
  type: "Convolution"
  bottom: "stage3_6/concat"
  top: "stage3_7/branch3a"
  convolution_param {
    num_output: 64
    bias_term: false
    pad: 0
    kernel_size: 1
    stride: 1
    weight_filler {
      type: "xavier"
    }
    bias_filler {
      type: "constant"
    }
  }
}
layer {
  name: "stage3_7/branch3a/bn"
  type: "BatchNorm"
  bottom: "stage3_7/branch3a"
  top: "stage3_7/branch3a"
  param {
    lr_mult: 0
    decay_mult: 0
  }
  param {
    lr_mult: 0
    decay_mult: 0
  }
  param {
    lr_mult: 0
    decay_mult: 0
  }
  batch_norm_param {
    moving_average_fraction: 0.999
    eps: 0.001
  }
}
layer {
  name: "stage3_7/branch3a/scale"
  type: "Scale"
  bottom: "stage3_7/branch3a"
  top: "stage3_7/branch3a"
  param {
    lr_mult: 1
    decay_mult: 0
  }
  param {
    lr_mult: 2
    decay_mult: 0
  }
  scale_param {
    filler {
      value: 1
    }
    bias_term: true
    bias_filler {
      value: 0
    }
  }
}
layer {
  name: "stage3_7/branch3a/relu"
  type: "ReLU"
  bottom: "stage3_7/branch3a"
  top: "stage3_7/branch3a"
}
layer {
  name: "stage3_7/branch3b"
  type: "Convolution"
  bottom: "stage3_7/branch3a"
  top: "stage3_7/branch3b"
  convolution_param {
    num_output: 64
    bias_term: false
    pad: 1
    kernel_size: 3
    stride: 1
    weight_filler {
      type: "xavier"
    }
    bias_filler {
      type: "constant"
    }
  }
}
layer {
  name: "stage3_7/branch3b/bn"
  type: "BatchNorm"
  bottom: "stage3_7/branch3b"
  top: "stage3_7/branch3b"
  param {
    lr_mult: 0
    decay_mult: 0
  }
  param {
    lr_mult: 0
    decay_mult: 0
  }
  param {
    lr_mult: 0
    decay_mult: 0
  }
  batch_norm_param {
    moving_average_fraction: 0.999
    eps: 0.001
  }
}
layer {
  name: "stage3_7/branch3b/scale"
  type: "Scale"
  bottom: "stage3_7/branch3b"
  top: "stage3_7/branch3b"
  param {
    lr_mult: 1
    decay_mult: 0
  }
  param {
    lr_mult: 2
    decay_mult: 0
  }
  scale_param {
    filler {
      value: 1
    }
    bias_term: true
    bias_filler {
      value: 0
    }
  }
}
layer {
  name: "stage3_7/branch3b/relu"
  type: "ReLU"
  bottom: "stage3_7/branch3b"
  top: "stage3_7/branch3b"
}
layer {
  name: "stage3_7/branch3c"
  type: "Convolution"
  bottom: "stage3_7/branch3b"
  top: "stage3_7/branch3c"
  convolution_param {
    num_output: 16
    bias_term: false
    pad: 1
    kernel_size: 3
    stride: 1
    weight_filler {
      type: "xavier"
    }
    bias_filler {
      type: "constant"
    }
  }
}
layer {
  name: "stage3_7/branch3c/bn"
  type: "BatchNorm"
  bottom: "stage3_7/branch3c"
  top: "stage3_7/branch3c"
  param {
    lr_mult: 0
    decay_mult: 0
  }
  param {
    lr_mult: 0
    decay_mult: 0
  }
  param {
    lr_mult: 0
    decay_mult: 0
  }
  batch_norm_param {
    moving_average_fraction: 0.999
    eps: 0.001
  }
}
layer {
  name: "stage3_7/branch3c/scale"
  type: "Scale"
  bottom: "stage3_7/branch3c"
  top: "stage3_7/branch3c"
  param {
    lr_mult: 1
    decay_mult: 0
  }
  param {
    lr_mult: 2
    decay_mult: 0
  }
  scale_param {
    filler {
      value: 1
    }
    bias_term: true
    bias_filler {
      value: 0
    }
  }
}
layer {
  name: "stage3_7/branch3c/relu"
  type: "ReLU"
  bottom: "stage3_7/branch3c"
  top: "stage3_7/branch3c"
}
layer {
  name: "stage3_7/eltwise"
  type: "Eltwise"
  bottom: "stage3_7/branch1"
  bottom: "stage3_7/branch2b"
  bottom: "stage3_7/branch3c"
  top: "stage3_7/eltwise"
  eltwise_param {
    operation: MAX
  }
}
layer {
  name: "stage3_7/concat"
  type: "Concat"
  bottom: "stage3_6/concat"
  bottom: "stage3_7/eltwise"
  top: "stage3_7/concat"
  concat_param {
    axis: 1
  }
}
layer {
  name: "stage3_8/branch1"
  type: "Convolution"
  bottom: "stage3_7/concat"
  top: "stage3_8/branch1"
  convolution_param {
    num_output: 16
    bias_term: false
    pad: 0
    kernel_size: 1
    stride: 1
    weight_filler {
      type: "xavier"
    }
    bias_filler {
      type: "constant"
    }
  }
}
layer {
  name: "stage3_8/branch1/bn"
  type: "BatchNorm"
  bottom: "stage3_8/branch1"
  top: "stage3_8/branch1"
  param {
    lr_mult: 0
    decay_mult: 0
  }
  param {
    lr_mult: 0
    decay_mult: 0
  }
  param {
    lr_mult: 0
    decay_mult: 0
  }
  batch_norm_param {
    moving_average_fraction: 0.999
    eps: 0.001
  }
}
layer {
  name: "stage3_8/branch1/scale"
  type: "Scale"
  bottom: "stage3_8/branch1"
  top: "stage3_8/branch1"
  param {
    lr_mult: 1
    decay_mult: 0
  }
  param {
    lr_mult: 2
    decay_mult: 0
  }
  scale_param {
    filler {
      value: 1
    }
    bias_term: true
    bias_filler {
      value: 0
    }
  }
}
layer {
  name: "stage3_8/branch1/relu"
  type: "ReLU"
  bottom: "stage3_8/branch1"
  top: "stage3_8/branch1"
}
layer {
  name: "stage3_8/branch2a"
  type: "Convolution"
  bottom: "stage3_7/concat"
  top: "stage3_8/branch2a"
  convolution_param {
    num_output: 64
    bias_term: false
    pad: 0
    kernel_size: 1
    stride: 1
    weight_filler {
      type: "xavier"
    }
    bias_filler {
      type: "constant"
    }
  }
}
layer {
  name: "stage3_8/branch2a/bn"
  type: "BatchNorm"
  bottom: "stage3_8/branch2a"
  top: "stage3_8/branch2a"
  param {
    lr_mult: 0
    decay_mult: 0
  }
  param {
    lr_mult: 0
    decay_mult: 0
  }
  param {
    lr_mult: 0
    decay_mult: 0
  }
  batch_norm_param {
    moving_average_fraction: 0.999
    eps: 0.001
  }
}
layer {
  name: "stage3_8/branch2a/scale"
  type: "Scale"
  bottom: "stage3_8/branch2a"
  top: "stage3_8/branch2a"
  param {
    lr_mult: 1
    decay_mult: 0
  }
  param {
    lr_mult: 2
    decay_mult: 0
  }
  scale_param {
    filler {
      value: 1
    }
    bias_term: true
    bias_filler {
      value: 0
    }
  }
}
layer {
  name: "stage3_8/branch2a/relu"
  type: "ReLU"
  bottom: "stage3_8/branch2a"
  top: "stage3_8/branch2a"
}
layer {
  name: "stage3_8/branch2b"
  type: "Convolution"
  bottom: "stage3_8/branch2a"
  top: "stage3_8/branch2b"
  convolution_param {
    num_output: 16
    bias_term: false
    pad: 1
    kernel_size: 3
    stride: 1
    weight_filler {
      type: "xavier"
    }
    bias_filler {
      type: "constant"
    }
  }
}
layer {
  name: "stage3_8/branch2b/bn"
  type: "BatchNorm"
  bottom: "stage3_8/branch2b"
  top: "stage3_8/branch2b"
  param {
    lr_mult: 0
    decay_mult: 0
  }
  param {
    lr_mult: 0
    decay_mult: 0
  }
  param {
    lr_mult: 0
    decay_mult: 0
  }
  batch_norm_param {
    moving_average_fraction: 0.999
    eps: 0.001
  }
}
layer {
  name: "stage3_8/branch2b/scale"
  type: "Scale"
  bottom: "stage3_8/branch2b"
  top: "stage3_8/branch2b"
  param {
    lr_mult: 1
    decay_mult: 0
  }
  param {
    lr_mult: 2
    decay_mult: 0
  }
  scale_param {
    filler {
      value: 1
    }
    bias_term: true
    bias_filler {
      value: 0
    }
  }
}
layer {
  name: "stage3_8/branch2b/relu"
  type: "ReLU"
  bottom: "stage3_8/branch2b"
  top: "stage3_8/branch2b"
}
layer {
  name: "stage3_8/branch3a"
  type: "Convolution"
  bottom: "stage3_7/concat"
  top: "stage3_8/branch3a"
  convolution_param {
    num_output: 64
    bias_term: false
    pad: 0
    kernel_size: 1
    stride: 1
    weight_filler {
      type: "xavier"
    }
    bias_filler {
      type: "constant"
    }
  }
}
layer {
  name: "stage3_8/branch3a/bn"
  type: "BatchNorm"
  bottom: "stage3_8/branch3a"
  top: "stage3_8/branch3a"
  param {
    lr_mult: 0
    decay_mult: 0
  }
  param {
    lr_mult: 0
    decay_mult: 0
  }
  param {
    lr_mult: 0
    decay_mult: 0
  }
  batch_norm_param {
    moving_average_fraction: 0.999
    eps: 0.001
  }
}
layer {
  name: "stage3_8/branch3a/scale"
  type: "Scale"
  bottom: "stage3_8/branch3a"
  top: "stage3_8/branch3a"
  param {
    lr_mult: 1
    decay_mult: 0
  }
  param {
    lr_mult: 2
    decay_mult: 0
  }
  scale_param {
    filler {
      value: 1
    }
    bias_term: true
    bias_filler {
      value: 0
    }
  }
}
layer {
  name: "stage3_8/branch3a/relu"
  type: "ReLU"
  bottom: "stage3_8/branch3a"
  top: "stage3_8/branch3a"
}
layer {
  name: "stage3_8/branch3b"
  type: "Convolution"
  bottom: "stage3_8/branch3a"
  top: "stage3_8/branch3b"
  convolution_param {
    num_output: 64
    bias_term: false
    pad: 1
    kernel_size: 3
    stride: 1
    weight_filler {
      type: "xavier"
    }
    bias_filler {
      type: "constant"
    }
  }
}
layer {
  name: "stage3_8/branch3b/bn"
  type: "BatchNorm"
  bottom: "stage3_8/branch3b"
  top: "stage3_8/branch3b"
  param {
    lr_mult: 0
    decay_mult: 0
  }
  param {
    lr_mult: 0
    decay_mult: 0
  }
  param {
    lr_mult: 0
    decay_mult: 0
  }
  batch_norm_param {
    moving_average_fraction: 0.999
    eps: 0.001
  }
}
layer {
  name: "stage3_8/branch3b/scale"
  type: "Scale"
  bottom: "stage3_8/branch3b"
  top: "stage3_8/branch3b"
  param {
    lr_mult: 1
    decay_mult: 0
  }
  param {
    lr_mult: 2
    decay_mult: 0
  }
  scale_param {
    filler {
      value: 1
    }
    bias_term: true
    bias_filler {
      value: 0
    }
  }
}
layer {
  name: "stage3_8/branch3b/relu"
  type: "ReLU"
  bottom: "stage3_8/branch3b"
  top: "stage3_8/branch3b"
}
layer {
  name: "stage3_8/branch3c"
  type: "Convolution"
  bottom: "stage3_8/branch3b"
  top: "stage3_8/branch3c"
  convolution_param {
    num_output: 16
    bias_term: false
    pad: 1
    kernel_size: 3
    stride: 1
    weight_filler {
      type: "xavier"
    }
    bias_filler {
      type: "constant"
    }
  }
}
layer {
  name: "stage3_8/branch3c/bn"
  type: "BatchNorm"
  bottom: "stage3_8/branch3c"
  top: "stage3_8/branch3c"
  param {
    lr_mult: 0
    decay_mult: 0
  }
  param {
    lr_mult: 0
    decay_mult: 0
  }
  param {
    lr_mult: 0
    decay_mult: 0
  }
  batch_norm_param {
    moving_average_fraction: 0.999
    eps: 0.001
  }
}
layer {
  name: "stage3_8/branch3c/scale"
  type: "Scale"
  bottom: "stage3_8/branch3c"
  top: "stage3_8/branch3c"
  param {
    lr_mult: 1
    decay_mult: 0
  }
  param {
    lr_mult: 2
    decay_mult: 0
  }
  scale_param {
    filler {
      value: 1
    }
    bias_term: true
    bias_filler {
      value: 0
    }
  }
}
layer {
  name: "stage3_8/branch3c/relu"
  type: "ReLU"
  bottom: "stage3_8/branch3c"
  top: "stage3_8/branch3c"
}
layer {
  name: "stage3_8/eltwise"
  type: "Eltwise"
  bottom: "stage3_8/branch1"
  bottom: "stage3_8/branch2b"
  bottom: "stage3_8/branch3c"
  top: "stage3_8/eltwise"
  eltwise_param {
    operation: MAX
  }
}
layer {
  name: "stage3_8/concat"
  type: "Concat"
  bottom: "stage3_7/concat"
  bottom: "stage3_8/eltwise"
  top: "stage3_8/concat"
  concat_param {
    axis: 1
  }
}
layer {
  name: "stage3_9/branch1"
  type: "Convolution"
  bottom: "stage3_8/concat"
  top: "stage3_9/branch1"
  convolution_param {
    num_output: 16
    bias_term: false
    pad: 0
    kernel_size: 1
    stride: 1
    weight_filler {
      type: "xavier"
    }
    bias_filler {
      type: "constant"
    }
  }
}
layer {
  name: "stage3_9/branch1/bn"
  type: "BatchNorm"
  bottom: "stage3_9/branch1"
  top: "stage3_9/branch1"
  param {
    lr_mult: 0
    decay_mult: 0
  }
  param {
    lr_mult: 0
    decay_mult: 0
  }
  param {
    lr_mult: 0
    decay_mult: 0
  }
  batch_norm_param {
    moving_average_fraction: 0.999
    eps: 0.001
  }
}
layer {
  name: "stage3_9/branch1/scale"
  type: "Scale"
  bottom: "stage3_9/branch1"
  top: "stage3_9/branch1"
  param {
    lr_mult: 1
    decay_mult: 0
  }
  param {
    lr_mult: 2
    decay_mult: 0
  }
  scale_param {
    filler {
      value: 1
    }
    bias_term: true
    bias_filler {
      value: 0
    }
  }
}
layer {
  name: "stage3_9/branch1/relu"
  type: "ReLU"
  bottom: "stage3_9/branch1"
  top: "stage3_9/branch1"
}
layer {
  name: "stage3_9/branch2a"
  type: "Convolution"
  bottom: "stage3_8/concat"
  top: "stage3_9/branch2a"
  convolution_param {
    num_output: 64
    bias_term: false
    pad: 0
    kernel_size: 1
    stride: 1
    weight_filler {
      type: "xavier"
    }
    bias_filler {
      type: "constant"
    }
  }
}
layer {
  name: "stage3_9/branch2a/bn"
  type: "BatchNorm"
  bottom: "stage3_9/branch2a"
  top: "stage3_9/branch2a"
  param {
    lr_mult: 0
    decay_mult: 0
  }
  param {
    lr_mult: 0
    decay_mult: 0
  }
  param {
    lr_mult: 0
    decay_mult: 0
  }
  batch_norm_param {
    moving_average_fraction: 0.999
    eps: 0.001
  }
}
layer {
  name: "stage3_9/branch2a/scale"
  type: "Scale"
  bottom: "stage3_9/branch2a"
  top: "stage3_9/branch2a"
  param {
    lr_mult: 1
    decay_mult: 0
  }
  param {
    lr_mult: 2
    decay_mult: 0
  }
  scale_param {
    filler {
      value: 1
    }
    bias_term: true
    bias_filler {
      value: 0
    }
  }
}
layer {
  name: "stage3_9/branch2a/relu"
  type: "ReLU"
  bottom: "stage3_9/branch2a"
  top: "stage3_9/branch2a"
}
layer {
  name: "stage3_9/branch2b"
  type: "Convolution"
  bottom: "stage3_9/branch2a"
  top: "stage3_9/branch2b"
  convolution_param {
    num_output: 16
    bias_term: false
    pad: 1
    kernel_size: 3
    stride: 1
    weight_filler {
      type: "xavier"
    }
    bias_filler {
      type: "constant"
    }
  }
}
layer {
  name: "stage3_9/branch2b/bn"
  type: "BatchNorm"
  bottom: "stage3_9/branch2b"
  top: "stage3_9/branch2b"
  param {
    lr_mult: 0
    decay_mult: 0
  }
  param {
    lr_mult: 0
    decay_mult: 0
  }
  param {
    lr_mult: 0
    decay_mult: 0
  }
  batch_norm_param {
    moving_average_fraction: 0.999
    eps: 0.001
  }
}
layer {
  name: "stage3_9/branch2b/scale"
  type: "Scale"
  bottom: "stage3_9/branch2b"
  top: "stage3_9/branch2b"
  param {
    lr_mult: 1
    decay_mult: 0
  }
  param {
    lr_mult: 2
    decay_mult: 0
  }
  scale_param {
    filler {
      value: 1
    }
    bias_term: true
    bias_filler {
      value: 0
    }
  }
}
layer {
  name: "stage3_9/branch2b/relu"
  type: "ReLU"
  bottom: "stage3_9/branch2b"
  top: "stage3_9/branch2b"
}
layer {
  name: "stage3_9/branch3a"
  type: "Convolution"
  bottom: "stage3_8/concat"
  top: "stage3_9/branch3a"
  convolution_param {
    num_output: 64
    bias_term: false
    pad: 0
    kernel_size: 1
    stride: 1
    weight_filler {
      type: "xavier"
    }
    bias_filler {
      type: "constant"
    }
  }
}
layer {
  name: "stage3_9/branch3a/bn"
  type: "BatchNorm"
  bottom: "stage3_9/branch3a"
  top: "stage3_9/branch3a"
  param {
    lr_mult: 0
    decay_mult: 0
  }
  param {
    lr_mult: 0
    decay_mult: 0
  }
  param {
    lr_mult: 0
    decay_mult: 0
  }
  batch_norm_param {
    moving_average_fraction: 0.999
    eps: 0.001
  }
}
layer {
  name: "stage3_9/branch3a/scale"
  type: "Scale"
  bottom: "stage3_9/branch3a"
  top: "stage3_9/branch3a"
  param {
    lr_mult: 1
    decay_mult: 0
  }
  param {
    lr_mult: 2
    decay_mult: 0
  }
  scale_param {
    filler {
      value: 1
    }
    bias_term: true
    bias_filler {
      value: 0
    }
  }
}
layer {
  name: "stage3_9/branch3a/relu"
  type: "ReLU"
  bottom: "stage3_9/branch3a"
  top: "stage3_9/branch3a"
}
layer {
  name: "stage3_9/branch3b"
  type: "Convolution"
  bottom: "stage3_9/branch3a"
  top: "stage3_9/branch3b"
  convolution_param {
    num_output: 64
    bias_term: false
    pad: 1
    kernel_size: 3
    stride: 1
    weight_filler {
      type: "xavier"
    }
    bias_filler {
      type: "constant"
    }
  }
}
layer {
  name: "stage3_9/branch3b/bn"
  type: "BatchNorm"
  bottom: "stage3_9/branch3b"
  top: "stage3_9/branch3b"
  param {
    lr_mult: 0
    decay_mult: 0
  }
  param {
    lr_mult: 0
    decay_mult: 0
  }
  param {
    lr_mult: 0
    decay_mult: 0
  }
  batch_norm_param {
    moving_average_fraction: 0.999
    eps: 0.001
  }
}
layer {
  name: "stage3_9/branch3b/scale"
  type: "Scale"
  bottom: "stage3_9/branch3b"
  top: "stage3_9/branch3b"
  param {
    lr_mult: 1
    decay_mult: 0
  }
  param {
    lr_mult: 2
    decay_mult: 0
  }
  scale_param {
    filler {
      value: 1
    }
    bias_term: true
    bias_filler {
      value: 0
    }
  }
}
layer {
  name: "stage3_9/branch3b/relu"
  type: "ReLU"
  bottom: "stage3_9/branch3b"
  top: "stage3_9/branch3b"
}
layer {
  name: "stage3_9/branch3c"
  type: "Convolution"
  bottom: "stage3_9/branch3b"
  top: "stage3_9/branch3c"
  convolution_param {
    num_output: 16
    bias_term: false
    pad: 1
    kernel_size: 3
    stride: 1
    weight_filler {
      type: "xavier"
    }
    bias_filler {
      type: "constant"
    }
  }
}
layer {
  name: "stage3_9/branch3c/bn"
  type: "BatchNorm"
  bottom: "stage3_9/branch3c"
  top: "stage3_9/branch3c"
  param {
    lr_mult: 0
    decay_mult: 0
  }
  param {
    lr_mult: 0
    decay_mult: 0
  }
  param {
    lr_mult: 0
    decay_mult: 0
  }
  batch_norm_param {
    moving_average_fraction: 0.999
    eps: 0.001
  }
}
layer {
  name: "stage3_9/branch3c/scale"
  type: "Scale"
  bottom: "stage3_9/branch3c"
  top: "stage3_9/branch3c"
  param {
    lr_mult: 1
    decay_mult: 0
  }
  param {
    lr_mult: 2
    decay_mult: 0
  }
  scale_param {
    filler {
      value: 1
    }
    bias_term: true
    bias_filler {
      value: 0
    }
  }
}
layer {
  name: "stage3_9/branch3c/relu"
  type: "ReLU"
  bottom: "stage3_9/branch3c"
  top: "stage3_9/branch3c"
}
layer {
  name: "stage3_9/eltwise"
  type: "Eltwise"
  bottom: "stage3_9/branch1"
  bottom: "stage3_9/branch2b"
  bottom: "stage3_9/branch3c"
  top: "stage3_9/eltwise"
  eltwise_param {
    operation: MAX
  }
}
layer {
  name: "stage3_9/concat"
  type: "Concat"
  bottom: "stage3_8/concat"
  bottom: "stage3_9/eltwise"
  top: "stage3_9/concat"
  concat_param {
    axis: 1
  }
}
layer {
  name: "stage3_10/branch1"
  type: "Convolution"
  bottom: "stage3_9/concat"
  top: "stage3_10/branch1"
  convolution_param {
    num_output: 16
    bias_term: false
    pad: 0
    kernel_size: 1
    stride: 1
    weight_filler {
      type: "xavier"
    }
    bias_filler {
      type: "constant"
    }
  }
}
layer {
  name: "stage3_10/branch1/bn"
  type: "BatchNorm"
  bottom: "stage3_10/branch1"
  top: "stage3_10/branch1"
  param {
    lr_mult: 0
    decay_mult: 0
  }
  param {
    lr_mult: 0
    decay_mult: 0
  }
  param {
    lr_mult: 0
    decay_mult: 0
  }
  batch_norm_param {
    moving_average_fraction: 0.999
    eps: 0.001
  }
}
layer {
  name: "stage3_10/branch1/scale"
  type: "Scale"
  bottom: "stage3_10/branch1"
  top: "stage3_10/branch1"
  param {
    lr_mult: 1
    decay_mult: 0
  }
  param {
    lr_mult: 2
    decay_mult: 0
  }
  scale_param {
    filler {
      value: 1
    }
    bias_term: true
    bias_filler {
      value: 0
    }
  }
}
layer {
  name: "stage3_10/branch1/relu"
  type: "ReLU"
  bottom: "stage3_10/branch1"
  top: "stage3_10/branch1"
}
layer {
  name: "stage3_10/branch2a"
  type: "Convolution"
  bottom: "stage3_9/concat"
  top: "stage3_10/branch2a"
  convolution_param {
    num_output: 64
    bias_term: false
    pad: 0
    kernel_size: 1
    stride: 1
    weight_filler {
      type: "xavier"
    }
    bias_filler {
      type: "constant"
    }
  }
}
layer {
  name: "stage3_10/branch2a/bn"
  type: "BatchNorm"
  bottom: "stage3_10/branch2a"
  top: "stage3_10/branch2a"
  param {
    lr_mult: 0
    decay_mult: 0
  }
  param {
    lr_mult: 0
    decay_mult: 0
  }
  param {
    lr_mult: 0
    decay_mult: 0
  }
  batch_norm_param {
    moving_average_fraction: 0.999
    eps: 0.001
  }
}
layer {
  name: "stage3_10/branch2a/scale"
  type: "Scale"
  bottom: "stage3_10/branch2a"
  top: "stage3_10/branch2a"
  param {
    lr_mult: 1
    decay_mult: 0
  }
  param {
    lr_mult: 2
    decay_mult: 0
  }
  scale_param {
    filler {
      value: 1
    }
    bias_term: true
    bias_filler {
      value: 0
    }
  }
}
layer {
  name: "stage3_10/branch2a/relu"
  type: "ReLU"
  bottom: "stage3_10/branch2a"
  top: "stage3_10/branch2a"
}
layer {
  name: "stage3_10/branch2b"
  type: "Convolution"
  bottom: "stage3_10/branch2a"
  top: "stage3_10/branch2b"
  convolution_param {
    num_output: 16
    bias_term: false
    pad: 1
    kernel_size: 3
    stride: 1
    weight_filler {
      type: "xavier"
    }
    bias_filler {
      type: "constant"
    }
  }
}
layer {
  name: "stage3_10/branch2b/bn"
  type: "BatchNorm"
  bottom: "stage3_10/branch2b"
  top: "stage3_10/branch2b"
  param {
    lr_mult: 0
    decay_mult: 0
  }
  param {
    lr_mult: 0
    decay_mult: 0
  }
  param {
    lr_mult: 0
    decay_mult: 0
  }
  batch_norm_param {
    moving_average_fraction: 0.999
    eps: 0.001
  }
}
layer {
  name: "stage3_10/branch2b/scale"
  type: "Scale"
  bottom: "stage3_10/branch2b"
  top: "stage3_10/branch2b"
  param {
    lr_mult: 1
    decay_mult: 0
  }
  param {
    lr_mult: 2
    decay_mult: 0
  }
  scale_param {
    filler {
      value: 1
    }
    bias_term: true
    bias_filler {
      value: 0
    }
  }
}
layer {
  name: "stage3_10/branch2b/relu"
  type: "ReLU"
  bottom: "stage3_10/branch2b"
  top: "stage3_10/branch2b"
}
layer {
  name: "stage3_10/branch3a"
  type: "Convolution"
  bottom: "stage3_9/concat"
  top: "stage3_10/branch3a"
  convolution_param {
    num_output: 64
    bias_term: false
    pad: 0
    kernel_size: 1
    stride: 1
    weight_filler {
      type: "xavier"
    }
    bias_filler {
      type: "constant"
    }
  }
}
layer {
  name: "stage3_10/branch3a/bn"
  type: "BatchNorm"
  bottom: "stage3_10/branch3a"
  top: "stage3_10/branch3a"
  param {
    lr_mult: 0
    decay_mult: 0
  }
  param {
    lr_mult: 0
    decay_mult: 0
  }
  param {
    lr_mult: 0
    decay_mult: 0
  }
  batch_norm_param {
    moving_average_fraction: 0.999
    eps: 0.001
  }
}
layer {
  name: "stage3_10/branch3a/scale"
  type: "Scale"
  bottom: "stage3_10/branch3a"
  top: "stage3_10/branch3a"
  param {
    lr_mult: 1
    decay_mult: 0
  }
  param {
    lr_mult: 2
    decay_mult: 0
  }
  scale_param {
    filler {
      value: 1
    }
    bias_term: true
    bias_filler {
      value: 0
    }
  }
}
layer {
  name: "stage3_10/branch3a/relu"
  type: "ReLU"
  bottom: "stage3_10/branch3a"
  top: "stage3_10/branch3a"
}
layer {
  name: "stage3_10/branch3b"
  type: "Convolution"
  bottom: "stage3_10/branch3a"
  top: "stage3_10/branch3b"
  convolution_param {
    num_output: 64
    bias_term: false
    pad: 1
    kernel_size: 3
    stride: 1
    weight_filler {
      type: "xavier"
    }
    bias_filler {
      type: "constant"
    }
  }
}
layer {
  name: "stage3_10/branch3b/bn"
  type: "BatchNorm"
  bottom: "stage3_10/branch3b"
  top: "stage3_10/branch3b"
  param {
    lr_mult: 0
    decay_mult: 0
  }
  param {
    lr_mult: 0
    decay_mult: 0
  }
  param {
    lr_mult: 0
    decay_mult: 0
  }
  batch_norm_param {
    moving_average_fraction: 0.999
    eps: 0.001
  }
}
layer {
  name: "stage3_10/branch3b/scale"
  type: "Scale"
  bottom: "stage3_10/branch3b"
  top: "stage3_10/branch3b"
  param {
    lr_mult: 1
    decay_mult: 0
  }
  param {
    lr_mult: 2
    decay_mult: 0
  }
  scale_param {
    filler {
      value: 1
    }
    bias_term: true
    bias_filler {
      value: 0
    }
  }
}
layer {
  name: "stage3_10/branch3b/relu"
  type: "ReLU"
  bottom: "stage3_10/branch3b"
  top: "stage3_10/branch3b"
}
layer {
  name: "stage3_10/branch3c"
  type: "Convolution"
  bottom: "stage3_10/branch3b"
  top: "stage3_10/branch3c"
  convolution_param {
    num_output: 16
    bias_term: false
    pad: 1
    kernel_size: 3
    stride: 1
    weight_filler {
      type: "xavier"
    }
    bias_filler {
      type: "constant"
    }
  }
}
layer {
  name: "stage3_10/branch3c/bn"
  type: "BatchNorm"
  bottom: "stage3_10/branch3c"
  top: "stage3_10/branch3c"
  param {
    lr_mult: 0
    decay_mult: 0
  }
  param {
    lr_mult: 0
    decay_mult: 0
  }
  param {
    lr_mult: 0
    decay_mult: 0
  }
  batch_norm_param {
    moving_average_fraction: 0.999
    eps: 0.001
  }
}
layer {
  name: "stage3_10/branch3c/scale"
  type: "Scale"
  bottom: "stage3_10/branch3c"
  top: "stage3_10/branch3c"
  param {
    lr_mult: 1
    decay_mult: 0
  }
  param {
    lr_mult: 2
    decay_mult: 0
  }
  scale_param {
    filler {
      value: 1
    }
    bias_term: true
    bias_filler {
      value: 0
    }
  }
}
layer {
  name: "stage3_10/branch3c/relu"
  type: "ReLU"
  bottom: "stage3_10/branch3c"
  top: "stage3_10/branch3c"
}
layer {
  name: "stage3_10/eltwise"
  type: "Eltwise"
  bottom: "stage3_10/branch1"
  bottom: "stage3_10/branch2b"
  bottom: "stage3_10/branch3c"
  top: "stage3_10/eltwise"
  eltwise_param {
    operation: MAX
  }
}
layer {
  name: "stage3_10/concat"
  type: "Concat"
  bottom: "stage3_9/concat"
  bottom: "stage3_10/eltwise"
  top: "stage3_10/concat"
  concat_param {
    axis: 1
  }
}
layer {
  name: "stage3_tb"
  type: "Convolution"
  bottom: "stage3_10/concat"
  top: "stage3_tb"
  convolution_param {
    num_output: 320
    bias_term: false
    pad: 0
    kernel_size: 1
    stride: 1
    weight_filler {
      type: "xavier"
    }
    bias_filler {
      type: "constant"
    }
  }
}
layer {
  name: "stage3_tb/bn"
  type: "BatchNorm"
  bottom: "stage3_tb"
  top: "stage3_tb"
  param {
    lr_mult: 0
    decay_mult: 0
  }
  param {
    lr_mult: 0
    decay_mult: 0
  }
  param {
    lr_mult: 0
    decay_mult: 0
  }
  batch_norm_param {
    moving_average_fraction: 0.999
    eps: 0.001
  }
}
layer {
  name: "stage3_tb/scale"
  type: "Scale"
  bottom: "stage3_tb"
  top: "stage3_tb"
  param {
    lr_mult: 1
    decay_mult: 0
  }
  param {
    lr_mult: 2
    decay_mult: 0
  }
  scale_param {
    filler {
      value: 1
    }
    bias_term: true
    bias_filler {
      value: 0
    }
  }
}
layer {
  name: "stage3_tb/relu"
  type: "ReLU"
  bottom: "stage3_tb"
  top: "stage3_tb"
}
layer {
  name: "stage3_tb/pool"
  type: "Pooling"
  bottom: "stage3_tb"
  top: "stage3_tb/pool"
  pooling_param {
    pool: MAX
    kernel_size: 2
    stride: 2
  }
}
layer {
  name: "stage4_1/branch1"
  type: "Convolution"
  bottom: "stage3_tb/pool"
  top: "stage4_1/branch1"
  convolution_param {
    num_output: 16
    bias_term: false
    pad: 0
    kernel_size: 1
    stride: 1
    weight_filler {
      type: "xavier"
    }
    bias_filler {
      type: "constant"
    }
  }
}
layer {
  name: "stage4_1/branch1/bn"
  type: "BatchNorm"
  bottom: "stage4_1/branch1"
  top: "stage4_1/branch1"
  param {
    lr_mult: 0
    decay_mult: 0
  }
  param {
    lr_mult: 0
    decay_mult: 0
  }
  param {
    lr_mult: 0
    decay_mult: 0
  }
  batch_norm_param {
    moving_average_fraction: 0.999
    eps: 0.001
  }
}
layer {
  name: "stage4_1/branch1/scale"
  type: "Scale"
  bottom: "stage4_1/branch1"
  top: "stage4_1/branch1"
  param {
    lr_mult: 1
    decay_mult: 0
  }
  param {
    lr_mult: 2
    decay_mult: 0
  }
  scale_param {
    filler {
      value: 1
    }
    bias_term: true
    bias_filler {
      value: 0
    }
  }
}
layer {
  name: "stage4_1/branch1/relu"
  type: "ReLU"
  bottom: "stage4_1/branch1"
  top: "stage4_1/branch1"
}
layer {
  name: "stage4_1/branch2a"
  type: "Convolution"
  bottom: "stage3_tb/pool"
  top: "stage4_1/branch2a"
  convolution_param {
    num_output: 64
    bias_term: false
    pad: 0
    kernel_size: 1
    stride: 1
    weight_filler {
      type: "xavier"
    }
    bias_filler {
      type: "constant"
    }
  }
}
layer {
  name: "stage4_1/branch2a/bn"
  type: "BatchNorm"
  bottom: "stage4_1/branch2a"
  top: "stage4_1/branch2a"
  param {
    lr_mult: 0
    decay_mult: 0
  }
  param {
    lr_mult: 0
    decay_mult: 0
  }
  param {
    lr_mult: 0
    decay_mult: 0
  }
  batch_norm_param {
    moving_average_fraction: 0.999
    eps: 0.001
  }
}
layer {
  name: "stage4_1/branch2a/scale"
  type: "Scale"
  bottom: "stage4_1/branch2a"
  top: "stage4_1/branch2a"
  param {
    lr_mult: 1
    decay_mult: 0
  }
  param {
    lr_mult: 2
    decay_mult: 0
  }
  scale_param {
    filler {
      value: 1
    }
    bias_term: true
    bias_filler {
      value: 0
    }
  }
}
layer {
  name: "stage4_1/branch2a/relu"
  type: "ReLU"
  bottom: "stage4_1/branch2a"
  top: "stage4_1/branch2a"
}
layer {
  name: "stage4_1/branch2b"
  type: "Convolution"
  bottom: "stage4_1/branch2a"
  top: "stage4_1/branch2b"
  convolution_param {
    num_output: 16
    bias_term: false
    pad: 1
    kernel_size: 3
    stride: 1
    weight_filler {
      type: "xavier"
    }
    bias_filler {
      type: "constant"
    }
  }
}
layer {
  name: "stage4_1/branch2b/bn"
  type: "BatchNorm"
  bottom: "stage4_1/branch2b"
  top: "stage4_1/branch2b"
  param {
    lr_mult: 0
    decay_mult: 0
  }
  param {
    lr_mult: 0
    decay_mult: 0
  }
  param {
    lr_mult: 0
    decay_mult: 0
  }
  batch_norm_param {
    moving_average_fraction: 0.999
    eps: 0.001
  }
}
layer {
  name: "stage4_1/branch2b/scale"
  type: "Scale"
  bottom: "stage4_1/branch2b"
  top: "stage4_1/branch2b"
  param {
    lr_mult: 1
    decay_mult: 0
  }
  param {
    lr_mult: 2
    decay_mult: 0
  }
  scale_param {
    filler {
      value: 1
    }
    bias_term: true
    bias_filler {
      value: 0
    }
  }
}
layer {
  name: "stage4_1/branch2b/relu"
  type: "ReLU"
  bottom: "stage4_1/branch2b"
  top: "stage4_1/branch2b"
}
layer {
  name: "stage4_1/branch3a"
  type: "Convolution"
  bottom: "stage3_tb/pool"
  top: "stage4_1/branch3a"
  convolution_param {
    num_output: 64
    bias_term: false
    pad: 0
    kernel_size: 1
    stride: 1
    weight_filler {
      type: "xavier"
    }
    bias_filler {
      type: "constant"
    }
  }
}
layer {
  name: "stage4_1/branch3a/bn"
  type: "BatchNorm"
  bottom: "stage4_1/branch3a"
  top: "stage4_1/branch3a"
  param {
    lr_mult: 0
    decay_mult: 0
  }
  param {
    lr_mult: 0
    decay_mult: 0
  }
  param {
    lr_mult: 0
    decay_mult: 0
  }
  batch_norm_param {
    moving_average_fraction: 0.999
    eps: 0.001
  }
}
layer {
  name: "stage4_1/branch3a/scale"
  type: "Scale"
  bottom: "stage4_1/branch3a"
  top: "stage4_1/branch3a"
  param {
    lr_mult: 1
    decay_mult: 0
  }
  param {
    lr_mult: 2
    decay_mult: 0
  }
  scale_param {
    filler {
      value: 1
    }
    bias_term: true
    bias_filler {
      value: 0
    }
  }
}
layer {
  name: "stage4_1/branch3a/relu"
  type: "ReLU"
  bottom: "stage4_1/branch3a"
  top: "stage4_1/branch3a"
}
layer {
  name: "stage4_1/branch3b"
  type: "Convolution"
  bottom: "stage4_1/branch3a"
  top: "stage4_1/branch3b"
  convolution_param {
    num_output: 64
    bias_term: false
    pad: 1
    kernel_size: 3
    stride: 1
    weight_filler {
      type: "xavier"
    }
    bias_filler {
      type: "constant"
    }
  }
}
layer {
  name: "stage4_1/branch3b/bn"
  type: "BatchNorm"
  bottom: "stage4_1/branch3b"
  top: "stage4_1/branch3b"
  param {
    lr_mult: 0
    decay_mult: 0
  }
  param {
    lr_mult: 0
    decay_mult: 0
  }
  param {
    lr_mult: 0
    decay_mult: 0
  }
  batch_norm_param {
    moving_average_fraction: 0.999
    eps: 0.001
  }
}
layer {
  name: "stage4_1/branch3b/scale"
  type: "Scale"
  bottom: "stage4_1/branch3b"
  top: "stage4_1/branch3b"
  param {
    lr_mult: 1
    decay_mult: 0
  }
  param {
    lr_mult: 2
    decay_mult: 0
  }
  scale_param {
    filler {
      value: 1
    }
    bias_term: true
    bias_filler {
      value: 0
    }
  }
}
layer {
  name: "stage4_1/branch3b/relu"
  type: "ReLU"
  bottom: "stage4_1/branch3b"
  top: "stage4_1/branch3b"
}
layer {
  name: "stage4_1/branch3c"
  type: "Convolution"
  bottom: "stage4_1/branch3b"
  top: "stage4_1/branch3c"
  convolution_param {
    num_output: 16
    bias_term: false
    pad: 1
    kernel_size: 3
    stride: 1
    weight_filler {
      type: "xavier"
    }
    bias_filler {
      type: "constant"
    }
  }
}
layer {
  name: "stage4_1/branch3c/bn"
  type: "BatchNorm"
  bottom: "stage4_1/branch3c"
  top: "stage4_1/branch3c"
  param {
    lr_mult: 0
    decay_mult: 0
  }
  param {
    lr_mult: 0
    decay_mult: 0
  }
  param {
    lr_mult: 0
    decay_mult: 0
  }
  batch_norm_param {
    moving_average_fraction: 0.999
    eps: 0.001
  }
}
layer {
  name: "stage4_1/branch3c/scale"
  type: "Scale"
  bottom: "stage4_1/branch3c"
  top: "stage4_1/branch3c"
  param {
    lr_mult: 1
    decay_mult: 0
  }
  param {
    lr_mult: 2
    decay_mult: 0
  }
  scale_param {
    filler {
      value: 1
    }
    bias_term: true
    bias_filler {
      value: 0
    }
  }
}
layer {
  name: "stage4_1/branch3c/relu"
  type: "ReLU"
  bottom: "stage4_1/branch3c"
  top: "stage4_1/branch3c"
}
layer {
  name: "stage4_1/eltwise"
  type: "Eltwise"
  bottom: "stage4_1/branch1"
  bottom: "stage4_1/branch2b"
  bottom: "stage4_1/branch3c"
  top: "stage4_1/eltwise"
  eltwise_param {
    operation: MAX
  }
}
layer {
  name: "stage4_1/concat"
  type: "Concat"
  bottom: "stage3_tb/pool"
  bottom: "stage4_1/eltwise"
  top: "stage4_1/concat"
  concat_param {
    axis: 1
  }
}
layer {
  name: "stage4_2/branch1"
  type: "Convolution"
  bottom: "stage4_1/concat"
  top: "stage4_2/branch1"
  convolution_param {
    num_output: 16
    bias_term: false
    pad: 0
    kernel_size: 1
    stride: 1
    weight_filler {
      type: "xavier"
    }
    bias_filler {
      type: "constant"
    }
  }
}
layer {
  name: "stage4_2/branch1/bn"
  type: "BatchNorm"
  bottom: "stage4_2/branch1"
  top: "stage4_2/branch1"
  param {
    lr_mult: 0
    decay_mult: 0
  }
  param {
    lr_mult: 0
    decay_mult: 0
  }
  param {
    lr_mult: 0
    decay_mult: 0
  }
  batch_norm_param {
    moving_average_fraction: 0.999
    eps: 0.001
  }
}
layer {
  name: "stage4_2/branch1/scale"
  type: "Scale"
  bottom: "stage4_2/branch1"
  top: "stage4_2/branch1"
  param {
    lr_mult: 1
    decay_mult: 0
  }
  param {
    lr_mult: 2
    decay_mult: 0
  }
  scale_param {
    filler {
      value: 1
    }
    bias_term: true
    bias_filler {
      value: 0
    }
  }
}
layer {
  name: "stage4_2/branch1/relu"
  type: "ReLU"
  bottom: "stage4_2/branch1"
  top: "stage4_2/branch1"
}
layer {
  name: "stage4_2/branch2a"
  type: "Convolution"
  bottom: "stage4_1/concat"
  top: "stage4_2/branch2a"
  convolution_param {
    num_output: 64
    bias_term: false
    pad: 0
    kernel_size: 1
    stride: 1
    weight_filler {
      type: "xavier"
    }
    bias_filler {
      type: "constant"
    }
  }
}
layer {
  name: "stage4_2/branch2a/bn"
  type: "BatchNorm"
  bottom: "stage4_2/branch2a"
  top: "stage4_2/branch2a"
  param {
    lr_mult: 0
    decay_mult: 0
  }
  param {
    lr_mult: 0
    decay_mult: 0
  }
  param {
    lr_mult: 0
    decay_mult: 0
  }
  batch_norm_param {
    moving_average_fraction: 0.999
    eps: 0.001
  }
}
layer {
  name: "stage4_2/branch2a/scale"
  type: "Scale"
  bottom: "stage4_2/branch2a"
  top: "stage4_2/branch2a"
  param {
    lr_mult: 1
    decay_mult: 0
  }
  param {
    lr_mult: 2
    decay_mult: 0
  }
  scale_param {
    filler {
      value: 1
    }
    bias_term: true
    bias_filler {
      value: 0
    }
  }
}
layer {
  name: "stage4_2/branch2a/relu"
  type: "ReLU"
  bottom: "stage4_2/branch2a"
  top: "stage4_2/branch2a"
}
layer {
  name: "stage4_2/branch2b"
  type: "Convolution"
  bottom: "stage4_2/branch2a"
  top: "stage4_2/branch2b"
  convolution_param {
    num_output: 16
    bias_term: false
    pad: 1
    kernel_size: 3
    stride: 1
    weight_filler {
      type: "xavier"
    }
    bias_filler {
      type: "constant"
    }
  }
}
layer {
  name: "stage4_2/branch2b/bn"
  type: "BatchNorm"
  bottom: "stage4_2/branch2b"
  top: "stage4_2/branch2b"
  param {
    lr_mult: 0
    decay_mult: 0
  }
  param {
    lr_mult: 0
    decay_mult: 0
  }
  param {
    lr_mult: 0
    decay_mult: 0
  }
  batch_norm_param {
    moving_average_fraction: 0.999
    eps: 0.001
  }
}
layer {
  name: "stage4_2/branch2b/scale"
  type: "Scale"
  bottom: "stage4_2/branch2b"
  top: "stage4_2/branch2b"
  param {
    lr_mult: 1
    decay_mult: 0
  }
  param {
    lr_mult: 2
    decay_mult: 0
  }
  scale_param {
    filler {
      value: 1
    }
    bias_term: true
    bias_filler {
      value: 0
    }
  }
}
layer {
  name: "stage4_2/branch2b/relu"
  type: "ReLU"
  bottom: "stage4_2/branch2b"
  top: "stage4_2/branch2b"
}
layer {
  name: "stage4_2/branch3a"
  type: "Convolution"
  bottom: "stage4_1/concat"
  top: "stage4_2/branch3a"
  convolution_param {
    num_output: 64
    bias_term: false
    pad: 0
    kernel_size: 1
    stride: 1
    weight_filler {
      type: "xavier"
    }
    bias_filler {
      type: "constant"
    }
  }
}
layer {
  name: "stage4_2/branch3a/bn"
  type: "BatchNorm"
  bottom: "stage4_2/branch3a"
  top: "stage4_2/branch3a"
  param {
    lr_mult: 0
    decay_mult: 0
  }
  param {
    lr_mult: 0
    decay_mult: 0
  }
  param {
    lr_mult: 0
    decay_mult: 0
  }
  batch_norm_param {
    moving_average_fraction: 0.999
    eps: 0.001
  }
}
layer {
  name: "stage4_2/branch3a/scale"
  type: "Scale"
  bottom: "stage4_2/branch3a"
  top: "stage4_2/branch3a"
  param {
    lr_mult: 1
    decay_mult: 0
  }
  param {
    lr_mult: 2
    decay_mult: 0
  }
  scale_param {
    filler {
      value: 1
    }
    bias_term: true
    bias_filler {
      value: 0
    }
  }
}
layer {
  name: "stage4_2/branch3a/relu"
  type: "ReLU"
  bottom: "stage4_2/branch3a"
  top: "stage4_2/branch3a"
}
layer {
  name: "stage4_2/branch3b"
  type: "Convolution"
  bottom: "stage4_2/branch3a"
  top: "stage4_2/branch3b"
  convolution_param {
    num_output: 64
    bias_term: false
    pad: 1
    kernel_size: 3
    stride: 1
    weight_filler {
      type: "xavier"
    }
    bias_filler {
      type: "constant"
    }
  }
}
layer {
  name: "stage4_2/branch3b/bn"
  type: "BatchNorm"
  bottom: "stage4_2/branch3b"
  top: "stage4_2/branch3b"
  param {
    lr_mult: 0
    decay_mult: 0
  }
  param {
    lr_mult: 0
    decay_mult: 0
  }
  param {
    lr_mult: 0
    decay_mult: 0
  }
  batch_norm_param {
    moving_average_fraction: 0.999
    eps: 0.001
  }
}
layer {
  name: "stage4_2/branch3b/scale"
  type: "Scale"
  bottom: "stage4_2/branch3b"
  top: "stage4_2/branch3b"
  param {
    lr_mult: 1
    decay_mult: 0
  }
  param {
    lr_mult: 2
    decay_mult: 0
  }
  scale_param {
    filler {
      value: 1
    }
    bias_term: true
    bias_filler {
      value: 0
    }
  }
}
layer {
  name: "stage4_2/branch3b/relu"
  type: "ReLU"
  bottom: "stage4_2/branch3b"
  top: "stage4_2/branch3b"
}
layer {
  name: "stage4_2/branch3c"
  type: "Convolution"
  bottom: "stage4_2/branch3b"
  top: "stage4_2/branch3c"
  convolution_param {
    num_output: 16
    bias_term: false
    pad: 1
    kernel_size: 3
    stride: 1
    weight_filler {
      type: "xavier"
    }
    bias_filler {
      type: "constant"
    }
  }
}
layer {
  name: "stage4_2/branch3c/bn"
  type: "BatchNorm"
  bottom: "stage4_2/branch3c"
  top: "stage4_2/branch3c"
  param {
    lr_mult: 0
    decay_mult: 0
  }
  param {
    lr_mult: 0
    decay_mult: 0
  }
  param {
    lr_mult: 0
    decay_mult: 0
  }
  batch_norm_param {
    moving_average_fraction: 0.999
    eps: 0.001
  }
}
layer {
  name: "stage4_2/branch3c/scale"
  type: "Scale"
  bottom: "stage4_2/branch3c"
  top: "stage4_2/branch3c"
  param {
    lr_mult: 1
    decay_mult: 0
  }
  param {
    lr_mult: 2
    decay_mult: 0
  }
  scale_param {
    filler {
      value: 1
    }
    bias_term: true
    bias_filler {
      value: 0
    }
  }
}
layer {
  name: "stage4_2/branch3c/relu"
  type: "ReLU"
  bottom: "stage4_2/branch3c"
  top: "stage4_2/branch3c"
}
layer {
  name: "stage4_2/eltwise"
  type: "Eltwise"
  bottom: "stage4_2/branch1"
  bottom: "stage4_2/branch2b"
  bottom: "stage4_2/branch3c"
  top: "stage4_2/eltwise"
  eltwise_param {
    operation: MAX
  }
}
layer {
  name: "stage4_2/concat"
  type: "Concat"
  bottom: "stage4_1/concat"
  bottom: "stage4_2/eltwise"
  top: "stage4_2/concat"
  concat_param {
    axis: 1
  }
}
layer {
  name: "stage4_3/branch1"
  type: "Convolution"
  bottom: "stage4_2/concat"
  top: "stage4_3/branch1"
  convolution_param {
    num_output: 16
    bias_term: false
    pad: 0
    kernel_size: 1
    stride: 1
    weight_filler {
      type: "xavier"
    }
    bias_filler {
      type: "constant"
    }
  }
}
layer {
  name: "stage4_3/branch1/bn"
  type: "BatchNorm"
  bottom: "stage4_3/branch1"
  top: "stage4_3/branch1"
  param {
    lr_mult: 0
    decay_mult: 0
  }
  param {
    lr_mult: 0
    decay_mult: 0
  }
  param {
    lr_mult: 0
    decay_mult: 0
  }
  batch_norm_param {
    moving_average_fraction: 0.999
    eps: 0.001
  }
}
layer {
  name: "stage4_3/branch1/scale"
  type: "Scale"
  bottom: "stage4_3/branch1"
  top: "stage4_3/branch1"
  param {
    lr_mult: 1
    decay_mult: 0
  }
  param {
    lr_mult: 2
    decay_mult: 0
  }
  scale_param {
    filler {
      value: 1
    }
    bias_term: true
    bias_filler {
      value: 0
    }
  }
}
layer {
  name: "stage4_3/branch1/relu"
  type: "ReLU"
  bottom: "stage4_3/branch1"
  top: "stage4_3/branch1"
}
layer {
  name: "stage4_3/branch2a"
  type: "Convolution"
  bottom: "stage4_2/concat"
  top: "stage4_3/branch2a"
  convolution_param {
    num_output: 64
    bias_term: false
    pad: 0
    kernel_size: 1
    stride: 1
    weight_filler {
      type: "xavier"
    }
    bias_filler {
      type: "constant"
    }
  }
}
layer {
  name: "stage4_3/branch2a/bn"
  type: "BatchNorm"
  bottom: "stage4_3/branch2a"
  top: "stage4_3/branch2a"
  param {
    lr_mult: 0
    decay_mult: 0
  }
  param {
    lr_mult: 0
    decay_mult: 0
  }
  param {
    lr_mult: 0
    decay_mult: 0
  }
  batch_norm_param {
    moving_average_fraction: 0.999
    eps: 0.001
  }
}
layer {
  name: "stage4_3/branch2a/scale"
  type: "Scale"
  bottom: "stage4_3/branch2a"
  top: "stage4_3/branch2a"
  param {
    lr_mult: 1
    decay_mult: 0
  }
  param {
    lr_mult: 2
    decay_mult: 0
  }
  scale_param {
    filler {
      value: 1
    }
    bias_term: true
    bias_filler {
      value: 0
    }
  }
}
layer {
  name: "stage4_3/branch2a/relu"
  type: "ReLU"
  bottom: "stage4_3/branch2a"
  top: "stage4_3/branch2a"
}
layer {
  name: "stage4_3/branch2b"
  type: "Convolution"
  bottom: "stage4_3/branch2a"
  top: "stage4_3/branch2b"
  convolution_param {
    num_output: 16
    bias_term: false
    pad: 1
    kernel_size: 3
    stride: 1
    weight_filler {
      type: "xavier"
    }
    bias_filler {
      type: "constant"
    }
  }
}
layer {
  name: "stage4_3/branch2b/bn"
  type: "BatchNorm"
  bottom: "stage4_3/branch2b"
  top: "stage4_3/branch2b"
  param {
    lr_mult: 0
    decay_mult: 0
  }
  param {
    lr_mult: 0
    decay_mult: 0
  }
  param {
    lr_mult: 0
    decay_mult: 0
  }
  batch_norm_param {
    moving_average_fraction: 0.999
    eps: 0.001
  }
}
layer {
  name: "stage4_3/branch2b/scale"
  type: "Scale"
  bottom: "stage4_3/branch2b"
  top: "stage4_3/branch2b"
  param {
    lr_mult: 1
    decay_mult: 0
  }
  param {
    lr_mult: 2
    decay_mult: 0
  }
  scale_param {
    filler {
      value: 1
    }
    bias_term: true
    bias_filler {
      value: 0
    }
  }
}
layer {
  name: "stage4_3/branch2b/relu"
  type: "ReLU"
  bottom: "stage4_3/branch2b"
  top: "stage4_3/branch2b"
}
layer {
  name: "stage4_3/branch3a"
  type: "Convolution"
  bottom: "stage4_2/concat"
  top: "stage4_3/branch3a"
  convolution_param {
    num_output: 64
    bias_term: false
    pad: 0
    kernel_size: 1
    stride: 1
    weight_filler {
      type: "xavier"
    }
    bias_filler {
      type: "constant"
    }
  }
}
layer {
  name: "stage4_3/branch3a/bn"
  type: "BatchNorm"
  bottom: "stage4_3/branch3a"
  top: "stage4_3/branch3a"
  param {
    lr_mult: 0
    decay_mult: 0
  }
  param {
    lr_mult: 0
    decay_mult: 0
  }
  param {
    lr_mult: 0
    decay_mult: 0
  }
  batch_norm_param {
    moving_average_fraction: 0.999
    eps: 0.001
  }
}
layer {
  name: "stage4_3/branch3a/scale"
  type: "Scale"
  bottom: "stage4_3/branch3a"
  top: "stage4_3/branch3a"
  param {
    lr_mult: 1
    decay_mult: 0
  }
  param {
    lr_mult: 2
    decay_mult: 0
  }
  scale_param {
    filler {
      value: 1
    }
    bias_term: true
    bias_filler {
      value: 0
    }
  }
}
layer {
  name: "stage4_3/branch3a/relu"
  type: "ReLU"
  bottom: "stage4_3/branch3a"
  top: "stage4_3/branch3a"
}
layer {
  name: "stage4_3/branch3b"
  type: "Convolution"
  bottom: "stage4_3/branch3a"
  top: "stage4_3/branch3b"
  convolution_param {
    num_output: 64
    bias_term: false
    pad: 1
    kernel_size: 3
    stride: 1
    weight_filler {
      type: "xavier"
    }
    bias_filler {
      type: "constant"
    }
  }
}
layer {
  name: "stage4_3/branch3b/bn"
  type: "BatchNorm"
  bottom: "stage4_3/branch3b"
  top: "stage4_3/branch3b"
  param {
    lr_mult: 0
    decay_mult: 0
  }
  param {
    lr_mult: 0
    decay_mult: 0
  }
  param {
    lr_mult: 0
    decay_mult: 0
  }
  batch_norm_param {
    moving_average_fraction: 0.999
    eps: 0.001
  }
}
layer {
  name: "stage4_3/branch3b/scale"
  type: "Scale"
  bottom: "stage4_3/branch3b"
  top: "stage4_3/branch3b"
  param {
    lr_mult: 1
    decay_mult: 0
  }
  param {
    lr_mult: 2
    decay_mult: 0
  }
  scale_param {
    filler {
      value: 1
    }
    bias_term: true
    bias_filler {
      value: 0
    }
  }
}
layer {
  name: "stage4_3/branch3b/relu"
  type: "ReLU"
  bottom: "stage4_3/branch3b"
  top: "stage4_3/branch3b"
}
layer {
  name: "stage4_3/branch3c"
  type: "Convolution"
  bottom: "stage4_3/branch3b"
  top: "stage4_3/branch3c"
  convolution_param {
    num_output: 16
    bias_term: false
    pad: 1
    kernel_size: 3
    stride: 1
    weight_filler {
      type: "xavier"
    }
    bias_filler {
      type: "constant"
    }
  }
}
layer {
  name: "stage4_3/branch3c/bn"
  type: "BatchNorm"
  bottom: "stage4_3/branch3c"
  top: "stage4_3/branch3c"
  param {
    lr_mult: 0
    decay_mult: 0
  }
  param {
    lr_mult: 0
    decay_mult: 0
  }
  param {
    lr_mult: 0
    decay_mult: 0
  }
  batch_norm_param {
    moving_average_fraction: 0.999
    eps: 0.001
  }
}
layer {
  name: "stage4_3/branch3c/scale"
  type: "Scale"
  bottom: "stage4_3/branch3c"
  top: "stage4_3/branch3c"
  param {
    lr_mult: 1
    decay_mult: 0
  }
  param {
    lr_mult: 2
    decay_mult: 0
  }
  scale_param {
    filler {
      value: 1
    }
    bias_term: true
    bias_filler {
      value: 0
    }
  }
}
layer {
  name: "stage4_3/branch3c/relu"
  type: "ReLU"
  bottom: "stage4_3/branch3c"
  top: "stage4_3/branch3c"
}
layer {
  name: "stage4_3/eltwise"
  type: "Eltwise"
  bottom: "stage4_3/branch1"
  bottom: "stage4_3/branch2b"
  bottom: "stage4_3/branch3c"
  top: "stage4_3/eltwise"
  eltwise_param {
    operation: MAX
  }
}
layer {
  name: "stage4_3/concat"
  type: "Concat"
  bottom: "stage4_2/concat"
  bottom: "stage4_3/eltwise"
  top: "stage4_3/concat"
  concat_param {
    axis: 1
  }
}
layer {
  name: "stage4_4/branch1"
  type: "Convolution"
  bottom: "stage4_3/concat"
  top: "stage4_4/branch1"
  convolution_param {
    num_output: 16
    bias_term: false
    pad: 0
    kernel_size: 1
    stride: 1
    weight_filler {
      type: "xavier"
    }
    bias_filler {
      type: "constant"
    }
  }
}
layer {
  name: "stage4_4/branch1/bn"
  type: "BatchNorm"
  bottom: "stage4_4/branch1"
  top: "stage4_4/branch1"
  param {
    lr_mult: 0
    decay_mult: 0
  }
  param {
    lr_mult: 0
    decay_mult: 0
  }
  param {
    lr_mult: 0
    decay_mult: 0
  }
  batch_norm_param {
    moving_average_fraction: 0.999
    eps: 0.001
  }
}
layer {
  name: "stage4_4/branch1/scale"
  type: "Scale"
  bottom: "stage4_4/branch1"
  top: "stage4_4/branch1"
  param {
    lr_mult: 1
    decay_mult: 0
  }
  param {
    lr_mult: 2
    decay_mult: 0
  }
  scale_param {
    filler {
      value: 1
    }
    bias_term: true
    bias_filler {
      value: 0
    }
  }
}
layer {
  name: "stage4_4/branch1/relu"
  type: "ReLU"
  bottom: "stage4_4/branch1"
  top: "stage4_4/branch1"
}
layer {
  name: "stage4_4/branch2a"
  type: "Convolution"
  bottom: "stage4_3/concat"
  top: "stage4_4/branch2a"
  convolution_param {
    num_output: 64
    bias_term: false
    pad: 0
    kernel_size: 1
    stride: 1
    weight_filler {
      type: "xavier"
    }
    bias_filler {
      type: "constant"
    }
  }
}
layer {
  name: "stage4_4/branch2a/bn"
  type: "BatchNorm"
  bottom: "stage4_4/branch2a"
  top: "stage4_4/branch2a"
  param {
    lr_mult: 0
    decay_mult: 0
  }
  param {
    lr_mult: 0
    decay_mult: 0
  }
  param {
    lr_mult: 0
    decay_mult: 0
  }
  batch_norm_param {
    moving_average_fraction: 0.999
    eps: 0.001
  }
}
layer {
  name: "stage4_4/branch2a/scale"
  type: "Scale"
  bottom: "stage4_4/branch2a"
  top: "stage4_4/branch2a"
  param {
    lr_mult: 1
    decay_mult: 0
  }
  param {
    lr_mult: 2
    decay_mult: 0
  }
  scale_param {
    filler {
      value: 1
    }
    bias_term: true
    bias_filler {
      value: 0
    }
  }
}
layer {
  name: "stage4_4/branch2a/relu"
  type: "ReLU"
  bottom: "stage4_4/branch2a"
  top: "stage4_4/branch2a"
}
layer {
  name: "stage4_4/branch2b"
  type: "Convolution"
  bottom: "stage4_4/branch2a"
  top: "stage4_4/branch2b"
  convolution_param {
    num_output: 16
    bias_term: false
    pad: 1
    kernel_size: 3
    stride: 1
    weight_filler {
      type: "xavier"
    }
    bias_filler {
      type: "constant"
    }
  }
}
layer {
  name: "stage4_4/branch2b/bn"
  type: "BatchNorm"
  bottom: "stage4_4/branch2b"
  top: "stage4_4/branch2b"
  param {
    lr_mult: 0
    decay_mult: 0
  }
  param {
    lr_mult: 0
    decay_mult: 0
  }
  param {
    lr_mult: 0
    decay_mult: 0
  }
  batch_norm_param {
    moving_average_fraction: 0.999
    eps: 0.001
  }
}
layer {
  name: "stage4_4/branch2b/scale"
  type: "Scale"
  bottom: "stage4_4/branch2b"
  top: "stage4_4/branch2b"
  param {
    lr_mult: 1
    decay_mult: 0
  }
  param {
    lr_mult: 2
    decay_mult: 0
  }
  scale_param {
    filler {
      value: 1
    }
    bias_term: true
    bias_filler {
      value: 0
    }
  }
}
layer {
  name: "stage4_4/branch2b/relu"
  type: "ReLU"
  bottom: "stage4_4/branch2b"
  top: "stage4_4/branch2b"
}
layer {
  name: "stage4_4/branch3a"
  type: "Convolution"
  bottom: "stage4_3/concat"
  top: "stage4_4/branch3a"
  convolution_param {
    num_output: 64
    bias_term: false
    pad: 0
    kernel_size: 1
    stride: 1
    weight_filler {
      type: "xavier"
    }
    bias_filler {
      type: "constant"
    }
  }
}
layer {
  name: "stage4_4/branch3a/bn"
  type: "BatchNorm"
  bottom: "stage4_4/branch3a"
  top: "stage4_4/branch3a"
  param {
    lr_mult: 0
    decay_mult: 0
  }
  param {
    lr_mult: 0
    decay_mult: 0
  }
  param {
    lr_mult: 0
    decay_mult: 0
  }
  batch_norm_param {
    moving_average_fraction: 0.999
    eps: 0.001
  }
}
layer {
  name: "stage4_4/branch3a/scale"
  type: "Scale"
  bottom: "stage4_4/branch3a"
  top: "stage4_4/branch3a"
  param {
    lr_mult: 1
    decay_mult: 0
  }
  param {
    lr_mult: 2
    decay_mult: 0
  }
  scale_param {
    filler {
      value: 1
    }
    bias_term: true
    bias_filler {
      value: 0
    }
  }
}
layer {
  name: "stage4_4/branch3a/relu"
  type: "ReLU"
  bottom: "stage4_4/branch3a"
  top: "stage4_4/branch3a"
}
layer {
  name: "stage4_4/branch3b"
  type: "Convolution"
  bottom: "stage4_4/branch3a"
  top: "stage4_4/branch3b"
  convolution_param {
    num_output: 64
    bias_term: false
    pad: 1
    kernel_size: 3
    stride: 1
    weight_filler {
      type: "xavier"
    }
    bias_filler {
      type: "constant"
    }
  }
}
layer {
  name: "stage4_4/branch3b/bn"
  type: "BatchNorm"
  bottom: "stage4_4/branch3b"
  top: "stage4_4/branch3b"
  param {
    lr_mult: 0
    decay_mult: 0
  }
  param {
    lr_mult: 0
    decay_mult: 0
  }
  param {
    lr_mult: 0
    decay_mult: 0
  }
  batch_norm_param {
    moving_average_fraction: 0.999
    eps: 0.001
  }
}
layer {
  name: "stage4_4/branch3b/scale"
  type: "Scale"
  bottom: "stage4_4/branch3b"
  top: "stage4_4/branch3b"
  param {
    lr_mult: 1
    decay_mult: 0
  }
  param {
    lr_mult: 2
    decay_mult: 0
  }
  scale_param {
    filler {
      value: 1
    }
    bias_term: true
    bias_filler {
      value: 0
    }
  }
}
layer {
  name: "stage4_4/branch3b/relu"
  type: "ReLU"
  bottom: "stage4_4/branch3b"
  top: "stage4_4/branch3b"
}
layer {
  name: "stage4_4/branch3c"
  type: "Convolution"
  bottom: "stage4_4/branch3b"
  top: "stage4_4/branch3c"
  convolution_param {
    num_output: 16
    bias_term: false
    pad: 1
    kernel_size: 3
    stride: 1
    weight_filler {
      type: "xavier"
    }
    bias_filler {
      type: "constant"
    }
  }
}
layer {
  name: "stage4_4/branch3c/bn"
  type: "BatchNorm"
  bottom: "stage4_4/branch3c"
  top: "stage4_4/branch3c"
  param {
    lr_mult: 0
    decay_mult: 0
  }
  param {
    lr_mult: 0
    decay_mult: 0
  }
  param {
    lr_mult: 0
    decay_mult: 0
  }
  batch_norm_param {
    moving_average_fraction: 0.999
    eps: 0.001
  }
}
layer {
  name: "stage4_4/branch3c/scale"
  type: "Scale"
  bottom: "stage4_4/branch3c"
  top: "stage4_4/branch3c"
  param {
    lr_mult: 1
    decay_mult: 0
  }
  param {
    lr_mult: 2
    decay_mult: 0
  }
  scale_param {
    filler {
      value: 1
    }
    bias_term: true
    bias_filler {
      value: 0
    }
  }
}
layer {
  name: "stage4_4/branch3c/relu"
  type: "ReLU"
  bottom: "stage4_4/branch3c"
  top: "stage4_4/branch3c"
}
layer {
  name: "stage4_4/eltwise"
  type: "Eltwise"
  bottom: "stage4_4/branch1"
  bottom: "stage4_4/branch2b"
  bottom: "stage4_4/branch3c"
  top: "stage4_4/eltwise"
  eltwise_param {
    operation: MAX
  }
}
layer {
  name: "stage4_4/concat"
  type: "Concat"
  bottom: "stage4_3/concat"
  bottom: "stage4_4/eltwise"
  top: "stage4_4/concat"
  concat_param {
    axis: 1
  }
}
layer {
  name: "stage4_5/branch1"
  type: "Convolution"
  bottom: "stage4_4/concat"
  top: "stage4_5/branch1"
  convolution_param {
    num_output: 16
    bias_term: false
    pad: 0
    kernel_size: 1
    stride: 1
    weight_filler {
      type: "xavier"
    }
    bias_filler {
      type: "constant"
    }
  }
}
layer {
  name: "stage4_5/branch1/bn"
  type: "BatchNorm"
  bottom: "stage4_5/branch1"
  top: "stage4_5/branch1"
  param {
    lr_mult: 0
    decay_mult: 0
  }
  param {
    lr_mult: 0
    decay_mult: 0
  }
  param {
    lr_mult: 0
    decay_mult: 0
  }
  batch_norm_param {
    moving_average_fraction: 0.999
    eps: 0.001
  }
}
layer {
  name: "stage4_5/branch1/scale"
  type: "Scale"
  bottom: "stage4_5/branch1"
  top: "stage4_5/branch1"
  param {
    lr_mult: 1
    decay_mult: 0
  }
  param {
    lr_mult: 2
    decay_mult: 0
  }
  scale_param {
    filler {
      value: 1
    }
    bias_term: true
    bias_filler {
      value: 0
    }
  }
}
layer {
  name: "stage4_5/branch1/relu"
  type: "ReLU"
  bottom: "stage4_5/branch1"
  top: "stage4_5/branch1"
}
layer {
  name: "stage4_5/branch2a"
  type: "Convolution"
  bottom: "stage4_4/concat"
  top: "stage4_5/branch2a"
  convolution_param {
    num_output: 64
    bias_term: false
    pad: 0
    kernel_size: 1
    stride: 1
    weight_filler {
      type: "xavier"
    }
    bias_filler {
      type: "constant"
    }
  }
}
layer {
  name: "stage4_5/branch2a/bn"
  type: "BatchNorm"
  bottom: "stage4_5/branch2a"
  top: "stage4_5/branch2a"
  param {
    lr_mult: 0
    decay_mult: 0
  }
  param {
    lr_mult: 0
    decay_mult: 0
  }
  param {
    lr_mult: 0
    decay_mult: 0
  }
  batch_norm_param {
    moving_average_fraction: 0.999
    eps: 0.001
  }
}
layer {
  name: "stage4_5/branch2a/scale"
  type: "Scale"
  bottom: "stage4_5/branch2a"
  top: "stage4_5/branch2a"
  param {
    lr_mult: 1
    decay_mult: 0
  }
  param {
    lr_mult: 2
    decay_mult: 0
  }
  scale_param {
    filler {
      value: 1
    }
    bias_term: true
    bias_filler {
      value: 0
    }
  }
}
layer {
  name: "stage4_5/branch2a/relu"
  type: "ReLU"
  bottom: "stage4_5/branch2a"
  top: "stage4_5/branch2a"
}
layer {
  name: "stage4_5/branch2b"
  type: "Convolution"
  bottom: "stage4_5/branch2a"
  top: "stage4_5/branch2b"
  convolution_param {
    num_output: 16
    bias_term: false
    pad: 1
    kernel_size: 3
    stride: 1
    weight_filler {
      type: "xavier"
    }
    bias_filler {
      type: "constant"
    }
  }
}
layer {
  name: "stage4_5/branch2b/bn"
  type: "BatchNorm"
  bottom: "stage4_5/branch2b"
  top: "stage4_5/branch2b"
  param {
    lr_mult: 0
    decay_mult: 0
  }
  param {
    lr_mult: 0
    decay_mult: 0
  }
  param {
    lr_mult: 0
    decay_mult: 0
  }
  batch_norm_param {
    moving_average_fraction: 0.999
    eps: 0.001
  }
}
layer {
  name: "stage4_5/branch2b/scale"
  type: "Scale"
  bottom: "stage4_5/branch2b"
  top: "stage4_5/branch2b"
  param {
    lr_mult: 1
    decay_mult: 0
  }
  param {
    lr_mult: 2
    decay_mult: 0
  }
  scale_param {
    filler {
      value: 1
    }
    bias_term: true
    bias_filler {
      value: 0
    }
  }
}
layer {
  name: "stage4_5/branch2b/relu"
  type: "ReLU"
  bottom: "stage4_5/branch2b"
  top: "stage4_5/branch2b"
}
layer {
  name: "stage4_5/branch3a"
  type: "Convolution"
  bottom: "stage4_4/concat"
  top: "stage4_5/branch3a"
  convolution_param {
    num_output: 64
    bias_term: false
    pad: 0
    kernel_size: 1
    stride: 1
    weight_filler {
      type: "xavier"
    }
    bias_filler {
      type: "constant"
    }
  }
}
layer {
  name: "stage4_5/branch3a/bn"
  type: "BatchNorm"
  bottom: "stage4_5/branch3a"
  top: "stage4_5/branch3a"
  param {
    lr_mult: 0
    decay_mult: 0
  }
  param {
    lr_mult: 0
    decay_mult: 0
  }
  param {
    lr_mult: 0
    decay_mult: 0
  }
  batch_norm_param {
    moving_average_fraction: 0.999
    eps: 0.001
  }
}
layer {
  name: "stage4_5/branch3a/scale"
  type: "Scale"
  bottom: "stage4_5/branch3a"
  top: "stage4_5/branch3a"
  param {
    lr_mult: 1
    decay_mult: 0
  }
  param {
    lr_mult: 2
    decay_mult: 0
  }
  scale_param {
    filler {
      value: 1
    }
    bias_term: true
    bias_filler {
      value: 0
    }
  }
}
layer {
  name: "stage4_5/branch3a/relu"
  type: "ReLU"
  bottom: "stage4_5/branch3a"
  top: "stage4_5/branch3a"
}
layer {
  name: "stage4_5/branch3b"
  type: "Convolution"
  bottom: "stage4_5/branch3a"
  top: "stage4_5/branch3b"
  convolution_param {
    num_output: 64
    bias_term: false
    pad: 1
    kernel_size: 3
    stride: 1
    weight_filler {
      type: "xavier"
    }
    bias_filler {
      type: "constant"
    }
  }
}
layer {
  name: "stage4_5/branch3b/bn"
  type: "BatchNorm"
  bottom: "stage4_5/branch3b"
  top: "stage4_5/branch3b"
  param {
    lr_mult: 0
    decay_mult: 0
  }
  param {
    lr_mult: 0
    decay_mult: 0
  }
  param {
    lr_mult: 0
    decay_mult: 0
  }
  batch_norm_param {
    moving_average_fraction: 0.999
    eps: 0.001
  }
}
layer {
  name: "stage4_5/branch3b/scale"
  type: "Scale"
  bottom: "stage4_5/branch3b"
  top: "stage4_5/branch3b"
  param {
    lr_mult: 1
    decay_mult: 0
  }
  param {
    lr_mult: 2
    decay_mult: 0
  }
  scale_param {
    filler {
      value: 1
    }
    bias_term: true
    bias_filler {
      value: 0
    }
  }
}
layer {
  name: "stage4_5/branch3b/relu"
  type: "ReLU"
  bottom: "stage4_5/branch3b"
  top: "stage4_5/branch3b"
}
layer {
  name: "stage4_5/branch3c"
  type: "Convolution"
  bottom: "stage4_5/branch3b"
  top: "stage4_5/branch3c"
  convolution_param {
    num_output: 16
    bias_term: false
    pad: 1
    kernel_size: 3
    stride: 1
    weight_filler {
      type: "xavier"
    }
    bias_filler {
      type: "constant"
    }
  }
}
layer {
  name: "stage4_5/branch3c/bn"
  type: "BatchNorm"
  bottom: "stage4_5/branch3c"
  top: "stage4_5/branch3c"
  param {
    lr_mult: 0
    decay_mult: 0
  }
  param {
    lr_mult: 0
    decay_mult: 0
  }
  param {
    lr_mult: 0
    decay_mult: 0
  }
  batch_norm_param {
    moving_average_fraction: 0.999
    eps: 0.001
  }
}
layer {
  name: "stage4_5/branch3c/scale"
  type: "Scale"
  bottom: "stage4_5/branch3c"
  top: "stage4_5/branch3c"
  param {
    lr_mult: 1
    decay_mult: 0
  }
  param {
    lr_mult: 2
    decay_mult: 0
  }
  scale_param {
    filler {
      value: 1
    }
    bias_term: true
    bias_filler {
      value: 0
    }
  }
}
layer {
  name: "stage4_5/branch3c/relu"
  type: "ReLU"
  bottom: "stage4_5/branch3c"
  top: "stage4_5/branch3c"
}
layer {
  name: "stage4_5/eltwise"
  type: "Eltwise"
  bottom: "stage4_5/branch1"
  bottom: "stage4_5/branch2b"
  bottom: "stage4_5/branch3c"
  top: "stage4_5/eltwise"
  eltwise_param {
    operation: MAX
  }
}
layer {
  name: "stage4_5/concat"
  type: "Concat"
  bottom: "stage4_4/concat"
  bottom: "stage4_5/eltwise"
  top: "stage4_5/concat"
  concat_param {
    axis: 1
  }
}
layer {
  name: "stage4_6/branch1"
  type: "Convolution"
  bottom: "stage4_5/concat"
  top: "stage4_6/branch1"
  convolution_param {
    num_output: 16
    bias_term: false
    pad: 0
    kernel_size: 1
    stride: 1
    weight_filler {
      type: "xavier"
    }
    bias_filler {
      type: "constant"
    }
  }
}
layer {
  name: "stage4_6/branch1/bn"
  type: "BatchNorm"
  bottom: "stage4_6/branch1"
  top: "stage4_6/branch1"
  param {
    lr_mult: 0
    decay_mult: 0
  }
  param {
    lr_mult: 0
    decay_mult: 0
  }
  param {
    lr_mult: 0
    decay_mult: 0
  }
  batch_norm_param {
    moving_average_fraction: 0.999
    eps: 0.001
  }
}
layer {
  name: "stage4_6/branch1/scale"
  type: "Scale"
  bottom: "stage4_6/branch1"
  top: "stage4_6/branch1"
  param {
    lr_mult: 1
    decay_mult: 0
  }
  param {
    lr_mult: 2
    decay_mult: 0
  }
  scale_param {
    filler {
      value: 1
    }
    bias_term: true
    bias_filler {
      value: 0
    }
  }
}
layer {
  name: "stage4_6/branch1/relu"
  type: "ReLU"
  bottom: "stage4_6/branch1"
  top: "stage4_6/branch1"
}
layer {
  name: "stage4_6/branch2a"
  type: "Convolution"
  bottom: "stage4_5/concat"
  top: "stage4_6/branch2a"
  convolution_param {
    num_output: 64
    bias_term: false
    pad: 0
    kernel_size: 1
    stride: 1
    weight_filler {
      type: "xavier"
    }
    bias_filler {
      type: "constant"
    }
  }
}
layer {
  name: "stage4_6/branch2a/bn"
  type: "BatchNorm"
  bottom: "stage4_6/branch2a"
  top: "stage4_6/branch2a"
  param {
    lr_mult: 0
    decay_mult: 0
  }
  param {
    lr_mult: 0
    decay_mult: 0
  }
  param {
    lr_mult: 0
    decay_mult: 0
  }
  batch_norm_param {
    moving_average_fraction: 0.999
    eps: 0.001
  }
}
layer {
  name: "stage4_6/branch2a/scale"
  type: "Scale"
  bottom: "stage4_6/branch2a"
  top: "stage4_6/branch2a"
  param {
    lr_mult: 1
    decay_mult: 0
  }
  param {
    lr_mult: 2
    decay_mult: 0
  }
  scale_param {
    filler {
      value: 1
    }
    bias_term: true
    bias_filler {
      value: 0
    }
  }
}
layer {
  name: "stage4_6/branch2a/relu"
  type: "ReLU"
  bottom: "stage4_6/branch2a"
  top: "stage4_6/branch2a"
}
layer {
  name: "stage4_6/branch2b"
  type: "Convolution"
  bottom: "stage4_6/branch2a"
  top: "stage4_6/branch2b"
  convolution_param {
    num_output: 16
    bias_term: false
    pad: 1
    kernel_size: 3
    stride: 1
    weight_filler {
      type: "xavier"
    }
    bias_filler {
      type: "constant"
    }
  }
}
layer {
  name: "stage4_6/branch2b/bn"
  type: "BatchNorm"
  bottom: "stage4_6/branch2b"
  top: "stage4_6/branch2b"
  param {
    lr_mult: 0
    decay_mult: 0
  }
  param {
    lr_mult: 0
    decay_mult: 0
  }
  param {
    lr_mult: 0
    decay_mult: 0
  }
  batch_norm_param {
    moving_average_fraction: 0.999
    eps: 0.001
  }
}
layer {
  name: "stage4_6/branch2b/scale"
  type: "Scale"
  bottom: "stage4_6/branch2b"
  top: "stage4_6/branch2b"
  param {
    lr_mult: 1
    decay_mult: 0
  }
  param {
    lr_mult: 2
    decay_mult: 0
  }
  scale_param {
    filler {
      value: 1
    }
    bias_term: true
    bias_filler {
      value: 0
    }
  }
}
layer {
  name: "stage4_6/branch2b/relu"
  type: "ReLU"
  bottom: "stage4_6/branch2b"
  top: "stage4_6/branch2b"
}
layer {
  name: "stage4_6/branch3a"
  type: "Convolution"
  bottom: "stage4_5/concat"
  top: "stage4_6/branch3a"
  convolution_param {
    num_output: 64
    bias_term: false
    pad: 0
    kernel_size: 1
    stride: 1
    weight_filler {
      type: "xavier"
    }
    bias_filler {
      type: "constant"
    }
  }
}
layer {
  name: "stage4_6/branch3a/bn"
  type: "BatchNorm"
  bottom: "stage4_6/branch3a"
  top: "stage4_6/branch3a"
  param {
    lr_mult: 0
    decay_mult: 0
  }
  param {
    lr_mult: 0
    decay_mult: 0
  }
  param {
    lr_mult: 0
    decay_mult: 0
  }
  batch_norm_param {
    moving_average_fraction: 0.999
    eps: 0.001
  }
}
layer {
  name: "stage4_6/branch3a/scale"
  type: "Scale"
  bottom: "stage4_6/branch3a"
  top: "stage4_6/branch3a"
  param {
    lr_mult: 1
    decay_mult: 0
  }
  param {
    lr_mult: 2
    decay_mult: 0
  }
  scale_param {
    filler {
      value: 1
    }
    bias_term: true
    bias_filler {
      value: 0
    }
  }
}
layer {
  name: "stage4_6/branch3a/relu"
  type: "ReLU"
  bottom: "stage4_6/branch3a"
  top: "stage4_6/branch3a"
}
layer {
  name: "stage4_6/branch3b"
  type: "Convolution"
  bottom: "stage4_6/branch3a"
  top: "stage4_6/branch3b"
  convolution_param {
    num_output: 64
    bias_term: false
    pad: 1
    kernel_size: 3
    stride: 1
    weight_filler {
      type: "xavier"
    }
    bias_filler {
      type: "constant"
    }
  }
}
layer {
  name: "stage4_6/branch3b/bn"
  type: "BatchNorm"
  bottom: "stage4_6/branch3b"
  top: "stage4_6/branch3b"
  param {
    lr_mult: 0
    decay_mult: 0
  }
  param {
    lr_mult: 0
    decay_mult: 0
  }
  param {
    lr_mult: 0
    decay_mult: 0
  }
  batch_norm_param {
    moving_average_fraction: 0.999
    eps: 0.001
  }
}
layer {
  name: "stage4_6/branch3b/scale"
  type: "Scale"
  bottom: "stage4_6/branch3b"
  top: "stage4_6/branch3b"
  param {
    lr_mult: 1
    decay_mult: 0
  }
  param {
    lr_mult: 2
    decay_mult: 0
  }
  scale_param {
    filler {
      value: 1
    }
    bias_term: true
    bias_filler {
      value: 0
    }
  }
}
layer {
  name: "stage4_6/branch3b/relu"
  type: "ReLU"
  bottom: "stage4_6/branch3b"
  top: "stage4_6/branch3b"
}
layer {
  name: "stage4_6/branch3c"
  type: "Convolution"
  bottom: "stage4_6/branch3b"
  top: "stage4_6/branch3c"
  convolution_param {
    num_output: 16
    bias_term: false
    pad: 1
    kernel_size: 3
    stride: 1
    weight_filler {
      type: "xavier"
    }
    bias_filler {
      type: "constant"
    }
  }
}
layer {
  name: "stage4_6/branch3c/bn"
  type: "BatchNorm"
  bottom: "stage4_6/branch3c"
  top: "stage4_6/branch3c"
  param {
    lr_mult: 0
    decay_mult: 0
  }
  param {
    lr_mult: 0
    decay_mult: 0
  }
  param {
    lr_mult: 0
    decay_mult: 0
  }
  batch_norm_param {
    moving_average_fraction: 0.999
    eps: 0.001
  }
}
layer {
  name: "stage4_6/branch3c/scale"
  type: "Scale"
  bottom: "stage4_6/branch3c"
  top: "stage4_6/branch3c"
  param {
    lr_mult: 1
    decay_mult: 0
  }
  param {
    lr_mult: 2
    decay_mult: 0
  }
  scale_param {
    filler {
      value: 1
    }
    bias_term: true
    bias_filler {
      value: 0
    }
  }
}
layer {
  name: "stage4_6/branch3c/relu"
  type: "ReLU"
  bottom: "stage4_6/branch3c"
  top: "stage4_6/branch3c"
}
layer {
  name: "stage4_6/eltwise"
  type: "Eltwise"
  bottom: "stage4_6/branch1"
  bottom: "stage4_6/branch2b"
  bottom: "stage4_6/branch3c"
  top: "stage4_6/eltwise"
  eltwise_param {
    operation: MAX
  }
}
layer {
  name: "stage4_6/concat"
  type: "Concat"
  bottom: "stage4_5/concat"
  bottom: "stage4_6/eltwise"
  top: "stage4_6/concat"
  concat_param {
    axis: 1
  }
}
layer {
  name: "stage4_7/branch1"
  type: "Convolution"
  bottom: "stage4_6/concat"
  top: "stage4_7/branch1"
  convolution_param {
    num_output: 16
    bias_term: false
    pad: 0
    kernel_size: 1
    stride: 1
    weight_filler {
      type: "xavier"
    }
    bias_filler {
      type: "constant"
    }
  }
}
layer {
  name: "stage4_7/branch1/bn"
  type: "BatchNorm"
  bottom: "stage4_7/branch1"
  top: "stage4_7/branch1"
  param {
    lr_mult: 0
    decay_mult: 0
  }
  param {
    lr_mult: 0
    decay_mult: 0
  }
  param {
    lr_mult: 0
    decay_mult: 0
  }
  batch_norm_param {
    moving_average_fraction: 0.999
    eps: 0.001
  }
}
layer {
  name: "stage4_7/branch1/scale"
  type: "Scale"
  bottom: "stage4_7/branch1"
  top: "stage4_7/branch1"
  param {
    lr_mult: 1
    decay_mult: 0
  }
  param {
    lr_mult: 2
    decay_mult: 0
  }
  scale_param {
    filler {
      value: 1
    }
    bias_term: true
    bias_filler {
      value: 0
    }
  }
}
layer {
  name: "stage4_7/branch1/relu"
  type: "ReLU"
  bottom: "stage4_7/branch1"
  top: "stage4_7/branch1"
}
layer {
  name: "stage4_7/branch2a"
  type: "Convolution"
  bottom: "stage4_6/concat"
  top: "stage4_7/branch2a"
  convolution_param {
    num_output: 64
    bias_term: false
    pad: 0
    kernel_size: 1
    stride: 1
    weight_filler {
      type: "xavier"
    }
    bias_filler {
      type: "constant"
    }
  }
}
layer {
  name: "stage4_7/branch2a/bn"
  type: "BatchNorm"
  bottom: "stage4_7/branch2a"
  top: "stage4_7/branch2a"
  param {
    lr_mult: 0
    decay_mult: 0
  }
  param {
    lr_mult: 0
    decay_mult: 0
  }
  param {
    lr_mult: 0
    decay_mult: 0
  }
  batch_norm_param {
    moving_average_fraction: 0.999
    eps: 0.001
  }
}
layer {
  name: "stage4_7/branch2a/scale"
  type: "Scale"
  bottom: "stage4_7/branch2a"
  top: "stage4_7/branch2a"
  param {
    lr_mult: 1
    decay_mult: 0
  }
  param {
    lr_mult: 2
    decay_mult: 0
  }
  scale_param {
    filler {
      value: 1
    }
    bias_term: true
    bias_filler {
      value: 0
    }
  }
}
layer {
  name: "stage4_7/branch2a/relu"
  type: "ReLU"
  bottom: "stage4_7/branch2a"
  top: "stage4_7/branch2a"
}
layer {
  name: "stage4_7/branch2b"
  type: "Convolution"
  bottom: "stage4_7/branch2a"
  top: "stage4_7/branch2b"
  convolution_param {
    num_output: 16
    bias_term: false
    pad: 1
    kernel_size: 3
    stride: 1
    weight_filler {
      type: "xavier"
    }
    bias_filler {
      type: "constant"
    }
  }
}
layer {
  name: "stage4_7/branch2b/bn"
  type: "BatchNorm"
  bottom: "stage4_7/branch2b"
  top: "stage4_7/branch2b"
  param {
    lr_mult: 0
    decay_mult: 0
  }
  param {
    lr_mult: 0
    decay_mult: 0
  }
  param {
    lr_mult: 0
    decay_mult: 0
  }
  batch_norm_param {
    moving_average_fraction: 0.999
    eps: 0.001
  }
}
layer {
  name: "stage4_7/branch2b/scale"
  type: "Scale"
  bottom: "stage4_7/branch2b"
  top: "stage4_7/branch2b"
  param {
    lr_mult: 1
    decay_mult: 0
  }
  param {
    lr_mult: 2
    decay_mult: 0
  }
  scale_param {
    filler {
      value: 1
    }
    bias_term: true
    bias_filler {
      value: 0
    }
  }
}
layer {
  name: "stage4_7/branch2b/relu"
  type: "ReLU"
  bottom: "stage4_7/branch2b"
  top: "stage4_7/branch2b"
}
layer {
  name: "stage4_7/branch3a"
  type: "Convolution"
  bottom: "stage4_6/concat"
  top: "stage4_7/branch3a"
  convolution_param {
    num_output: 64
    bias_term: false
    pad: 0
    kernel_size: 1
    stride: 1
    weight_filler {
      type: "xavier"
    }
    bias_filler {
      type: "constant"
    }
  }
}
layer {
  name: "stage4_7/branch3a/bn"
  type: "BatchNorm"
  bottom: "stage4_7/branch3a"
  top: "stage4_7/branch3a"
  param {
    lr_mult: 0
    decay_mult: 0
  }
  param {
    lr_mult: 0
    decay_mult: 0
  }
  param {
    lr_mult: 0
    decay_mult: 0
  }
  batch_norm_param {
    moving_average_fraction: 0.999
    eps: 0.001
  }
}
layer {
  name: "stage4_7/branch3a/scale"
  type: "Scale"
  bottom: "stage4_7/branch3a"
  top: "stage4_7/branch3a"
  param {
    lr_mult: 1
    decay_mult: 0
  }
  param {
    lr_mult: 2
    decay_mult: 0
  }
  scale_param {
    filler {
      value: 1
    }
    bias_term: true
    bias_filler {
      value: 0
    }
  }
}
layer {
  name: "stage4_7/branch3a/relu"
  type: "ReLU"
  bottom: "stage4_7/branch3a"
  top: "stage4_7/branch3a"
}
layer {
  name: "stage4_7/branch3b"
  type: "Convolution"
  bottom: "stage4_7/branch3a"
  top: "stage4_7/branch3b"
  convolution_param {
    num_output: 64
    bias_term: false
    pad: 1
    kernel_size: 3
    stride: 1
    weight_filler {
      type: "xavier"
    }
    bias_filler {
      type: "constant"
    }
  }
}
layer {
  name: "stage4_7/branch3b/bn"
  type: "BatchNorm"
  bottom: "stage4_7/branch3b"
  top: "stage4_7/branch3b"
  param {
    lr_mult: 0
    decay_mult: 0
  }
  param {
    lr_mult: 0
    decay_mult: 0
  }
  param {
    lr_mult: 0
    decay_mult: 0
  }
  batch_norm_param {
    moving_average_fraction: 0.999
    eps: 0.001
  }
}
layer {
  name: "stage4_7/branch3b/scale"
  type: "Scale"
  bottom: "stage4_7/branch3b"
  top: "stage4_7/branch3b"
  param {
    lr_mult: 1
    decay_mult: 0
  }
  param {
    lr_mult: 2
    decay_mult: 0
  }
  scale_param {
    filler {
      value: 1
    }
    bias_term: true
    bias_filler {
      value: 0
    }
  }
}
layer {
  name: "stage4_7/branch3b/relu"
  type: "ReLU"
  bottom: "stage4_7/branch3b"
  top: "stage4_7/branch3b"
}
layer {
  name: "stage4_7/branch3c"
  type: "Convolution"
  bottom: "stage4_7/branch3b"
  top: "stage4_7/branch3c"
  convolution_param {
    num_output: 16
    bias_term: false
    pad: 1
    kernel_size: 3
    stride: 1
    weight_filler {
      type: "xavier"
    }
    bias_filler {
      type: "constant"
    }
  }
}
layer {
  name: "stage4_7/branch3c/bn"
  type: "BatchNorm"
  bottom: "stage4_7/branch3c"
  top: "stage4_7/branch3c"
  param {
    lr_mult: 0
    decay_mult: 0
  }
  param {
    lr_mult: 0
    decay_mult: 0
  }
  param {
    lr_mult: 0
    decay_mult: 0
  }
  batch_norm_param {
    moving_average_fraction: 0.999
    eps: 0.001
  }
}
layer {
  name: "stage4_7/branch3c/scale"
  type: "Scale"
  bottom: "stage4_7/branch3c"
  top: "stage4_7/branch3c"
  param {
    lr_mult: 1
    decay_mult: 0
  }
  param {
    lr_mult: 2
    decay_mult: 0
  }
  scale_param {
    filler {
      value: 1
    }
    bias_term: true
    bias_filler {
      value: 0
    }
  }
}
layer {
  name: "stage4_7/branch3c/relu"
  type: "ReLU"
  bottom: "stage4_7/branch3c"
  top: "stage4_7/branch3c"
}
layer {
  name: "stage4_7/eltwise"
  type: "Eltwise"
  bottom: "stage4_7/branch1"
  bottom: "stage4_7/branch2b"
  bottom: "stage4_7/branch3c"
  top: "stage4_7/eltwise"
  eltwise_param {
    operation: MAX
  }
}
layer {
  name: "stage4_7/concat"
  type: "Concat"
  bottom: "stage4_6/concat"
  bottom: "stage4_7/eltwise"
  top: "stage4_7/concat"
  concat_param {
    axis: 1
  }
}
layer {
  name: "stage4_8/branch1"
  type: "Convolution"
  bottom: "stage4_7/concat"
  top: "stage4_8/branch1"
  convolution_param {
    num_output: 16
    bias_term: false
    pad: 0
    kernel_size: 1
    stride: 1
    weight_filler {
      type: "xavier"
    }
    bias_filler {
      type: "constant"
    }
  }
}
layer {
  name: "stage4_8/branch1/bn"
  type: "BatchNorm"
  bottom: "stage4_8/branch1"
  top: "stage4_8/branch1"
  param {
    lr_mult: 0
    decay_mult: 0
  }
  param {
    lr_mult: 0
    decay_mult: 0
  }
  param {
    lr_mult: 0
    decay_mult: 0
  }
  batch_norm_param {
    moving_average_fraction: 0.999
    eps: 0.001
  }
}
layer {
  name: "stage4_8/branch1/scale"
  type: "Scale"
  bottom: "stage4_8/branch1"
  top: "stage4_8/branch1"
  param {
    lr_mult: 1
    decay_mult: 0
  }
  param {
    lr_mult: 2
    decay_mult: 0
  }
  scale_param {
    filler {
      value: 1
    }
    bias_term: true
    bias_filler {
      value: 0
    }
  }
}
layer {
  name: "stage4_8/branch1/relu"
  type: "ReLU"
  bottom: "stage4_8/branch1"
  top: "stage4_8/branch1"
}
layer {
  name: "stage4_8/branch2a"
  type: "Convolution"
  bottom: "stage4_7/concat"
  top: "stage4_8/branch2a"
  convolution_param {
    num_output: 64
    bias_term: false
    pad: 0
    kernel_size: 1
    stride: 1
    weight_filler {
      type: "xavier"
    }
    bias_filler {
      type: "constant"
    }
  }
}
layer {
  name: "stage4_8/branch2a/bn"
  type: "BatchNorm"
  bottom: "stage4_8/branch2a"
  top: "stage4_8/branch2a"
  param {
    lr_mult: 0
    decay_mult: 0
  }
  param {
    lr_mult: 0
    decay_mult: 0
  }
  param {
    lr_mult: 0
    decay_mult: 0
  }
  batch_norm_param {
    moving_average_fraction: 0.999
    eps: 0.001
  }
}
layer {
  name: "stage4_8/branch2a/scale"
  type: "Scale"
  bottom: "stage4_8/branch2a"
  top: "stage4_8/branch2a"
  param {
    lr_mult: 1
    decay_mult: 0
  }
  param {
    lr_mult: 2
    decay_mult: 0
  }
  scale_param {
    filler {
      value: 1
    }
    bias_term: true
    bias_filler {
      value: 0
    }
  }
}
layer {
  name: "stage4_8/branch2a/relu"
  type: "ReLU"
  bottom: "stage4_8/branch2a"
  top: "stage4_8/branch2a"
}
layer {
  name: "stage4_8/branch2b"
  type: "Convolution"
  bottom: "stage4_8/branch2a"
  top: "stage4_8/branch2b"
  convolution_param {
    num_output: 16
    bias_term: false
    pad: 1
    kernel_size: 3
    stride: 1
    weight_filler {
      type: "xavier"
    }
    bias_filler {
      type: "constant"
    }
  }
}
layer {
  name: "stage4_8/branch2b/bn"
  type: "BatchNorm"
  bottom: "stage4_8/branch2b"
  top: "stage4_8/branch2b"
  param {
    lr_mult: 0
    decay_mult: 0
  }
  param {
    lr_mult: 0
    decay_mult: 0
  }
  param {
    lr_mult: 0
    decay_mult: 0
  }
  batch_norm_param {
    moving_average_fraction: 0.999
    eps: 0.001
  }
}
layer {
  name: "stage4_8/branch2b/scale"
  type: "Scale"
  bottom: "stage4_8/branch2b"
  top: "stage4_8/branch2b"
  param {
    lr_mult: 1
    decay_mult: 0
  }
  param {
    lr_mult: 2
    decay_mult: 0
  }
  scale_param {
    filler {
      value: 1
    }
    bias_term: true
    bias_filler {
      value: 0
    }
  }
}
layer {
  name: "stage4_8/branch2b/relu"
  type: "ReLU"
  bottom: "stage4_8/branch2b"
  top: "stage4_8/branch2b"
}
layer {
  name: "stage4_8/branch3a"
  type: "Convolution"
  bottom: "stage4_7/concat"
  top: "stage4_8/branch3a"
  convolution_param {
    num_output: 64
    bias_term: false
    pad: 0
    kernel_size: 1
    stride: 1
    weight_filler {
      type: "xavier"
    }
    bias_filler {
      type: "constant"
    }
  }
}
layer {
  name: "stage4_8/branch3a/bn"
  type: "BatchNorm"
  bottom: "stage4_8/branch3a"
  top: "stage4_8/branch3a"
  param {
    lr_mult: 0
    decay_mult: 0
  }
  param {
    lr_mult: 0
    decay_mult: 0
  }
  param {
    lr_mult: 0
    decay_mult: 0
  }
  batch_norm_param {
    moving_average_fraction: 0.999
    eps: 0.001
  }
}
layer {
  name: "stage4_8/branch3a/scale"
  type: "Scale"
  bottom: "stage4_8/branch3a"
  top: "stage4_8/branch3a"
  param {
    lr_mult: 1
    decay_mult: 0
  }
  param {
    lr_mult: 2
    decay_mult: 0
  }
  scale_param {
    filler {
      value: 1
    }
    bias_term: true
    bias_filler {
      value: 0
    }
  }
}
layer {
  name: "stage4_8/branch3a/relu"
  type: "ReLU"
  bottom: "stage4_8/branch3a"
  top: "stage4_8/branch3a"
}
layer {
  name: "stage4_8/branch3b"
  type: "Convolution"
  bottom: "stage4_8/branch3a"
  top: "stage4_8/branch3b"
  convolution_param {
    num_output: 64
    bias_term: false
    pad: 1
    kernel_size: 3
    stride: 1
    weight_filler {
      type: "xavier"
    }
    bias_filler {
      type: "constant"
    }
  }
}
layer {
  name: "stage4_8/branch3b/bn"
  type: "BatchNorm"
  bottom: "stage4_8/branch3b"
  top: "stage4_8/branch3b"
  param {
    lr_mult: 0
    decay_mult: 0
  }
  param {
    lr_mult: 0
    decay_mult: 0
  }
  param {
    lr_mult: 0
    decay_mult: 0
  }
  batch_norm_param {
    moving_average_fraction: 0.999
    eps: 0.001
  }
}
layer {
  name: "stage4_8/branch3b/scale"
  type: "Scale"
  bottom: "stage4_8/branch3b"
  top: "stage4_8/branch3b"
  param {
    lr_mult: 1
    decay_mult: 0
  }
  param {
    lr_mult: 2
    decay_mult: 0
  }
  scale_param {
    filler {
      value: 1
    }
    bias_term: true
    bias_filler {
      value: 0
    }
  }
}
layer {
  name: "stage4_8/branch3b/relu"
  type: "ReLU"
  bottom: "stage4_8/branch3b"
  top: "stage4_8/branch3b"
}
layer {
  name: "stage4_8/branch3c"
  type: "Convolution"
  bottom: "stage4_8/branch3b"
  top: "stage4_8/branch3c"
  convolution_param {
    num_output: 16
    bias_term: false
    pad: 1
    kernel_size: 3
    stride: 1
    weight_filler {
      type: "xavier"
    }
    bias_filler {
      type: "constant"
    }
  }
}
layer {
  name: "stage4_8/branch3c/bn"
  type: "BatchNorm"
  bottom: "stage4_8/branch3c"
  top: "stage4_8/branch3c"
  param {
    lr_mult: 0
    decay_mult: 0
  }
  param {
    lr_mult: 0
    decay_mult: 0
  }
  param {
    lr_mult: 0
    decay_mult: 0
  }
  batch_norm_param {
    moving_average_fraction: 0.999
    eps: 0.001
  }
}
layer {
  name: "stage4_8/branch3c/scale"
  type: "Scale"
  bottom: "stage4_8/branch3c"
  top: "stage4_8/branch3c"
  param {
    lr_mult: 1
    decay_mult: 0
  }
  param {
    lr_mult: 2
    decay_mult: 0
  }
  scale_param {
    filler {
      value: 1
    }
    bias_term: true
    bias_filler {
      value: 0
    }
  }
}
layer {
  name: "stage4_8/branch3c/relu"
  type: "ReLU"
  bottom: "stage4_8/branch3c"
  top: "stage4_8/branch3c"
}
layer {
  name: "stage4_8/eltwise"
  type: "Eltwise"
  bottom: "stage4_8/branch1"
  bottom: "stage4_8/branch2b"
  bottom: "stage4_8/branch3c"
  top: "stage4_8/eltwise"
  eltwise_param {
    operation: MAX
  }
}
layer {
  name: "stage4_8/concat"
  type: "Concat"
  bottom: "stage4_7/concat"
  bottom: "stage4_8/eltwise"
  top: "stage4_8/concat"
  concat_param {
    axis: 1
  }
}
layer {
  name: "stage4_tb"
  type: "Convolution"
  bottom: "stage4_8/concat"
  top: "stage4_tb"
  convolution_param {
    num_output: 448
    bias_term: false
    pad: 0
    kernel_size: 1
    stride: 1
    weight_filler {
      type: "xavier"
    }
    bias_filler {
      type: "constant"
    }
  }
}
layer {
  name: "stage4_tb/bn"
  type: "BatchNorm"
  bottom: "stage4_tb"
  top: "stage4_tb"
  param {
    lr_mult: 0
    decay_mult: 0
  }
  param {
    lr_mult: 0
    decay_mult: 0
  }
  param {
    lr_mult: 0
    decay_mult: 0
  }
  batch_norm_param {
    moving_average_fraction: 0.999
    eps: 0.001
  }
}
layer {
  name: "stage4_tb/scale"
  type: "Scale"
  bottom: "stage4_tb"
  top: "stage4_tb"
  param {
    lr_mult: 1
    decay_mult: 0
  }
  param {
    lr_mult: 2
    decay_mult: 0
  }
  scale_param {
    filler {
      value: 1
    }
    bias_term: true
    bias_filler {
      value: 0
    }
  }
}
layer {
  name: "stage4_tb/relu"
  type: "ReLU"
  bottom: "stage4_tb"
  top: "stage4_tb"
}
layer {
  name: "global_pool"
  type: "Pooling"
  bottom: "stage4_tb"
  top: "global_pool"
  pooling_param {
    pool: AVE
    global_pooling: true
  }
}
layer {
  name: "classifier"
  type: "InnerProduct"
  bottom: "global_pool"
  top: "classifier"
  inner_product_param {
    num_output: 1000
    bias_term: true
    weight_filler {
      type: "xavier"
    }
    bias_filler {
      type: "constant"
    }
  }
}
layer {
  name: "loss"
  type: "SoftmaxWithLoss"
  bottom: "classifier"
  bottom: "label"
  top: "loss"
}
layer {
  name: "accuracy"
  type: "Accuracy"
  bottom: "classifier"
  bottom: "label"
  top: "accuracy"
}
layer {
  name: "accuracy_top5"
  type: "Accuracy"
  bottom: "classifier"
  bottom: "label"
  top: "accuracy_top5"
  accuracy_param {
    top_k: 5
  }
}
